model/checkpoint.pth (torch_old, 147138 bytes, 8 tensors)

fc1.weight f4 [128, 24]
000000 1c f5 31 bc e7 c8 b9 bd 95 71 98 3d 1e a8 11 bd
       -0.010861661 -0.09071522 0.07443539 -0.03556072
000010 9a 8d 3d bd 11 43 a4 3d e8 0f 88 bd e9 a6 25 3d
       -0.04627762 0.080206044 -0.06643659 0.04044238
000020 56 f8 d1 bb df 6f 9c 3d 90 d6 7d bd 42 c9 73 bd
       -0.006407778 0.07638525 -0.0619722 -0.059518106
000030 94 01 af bd 2b ea 80 3c b3 28 89 bd 1f 82 da 3c
       -0.08545223 0.01573666 -0.06697216 0.026673375
000040 98 c2 60 bd a4 e5 5c bd 6f f7 82 ba dc 28 4e 3c
       -0.05487308 -0.05392994 -0.0009991954 0.012582984
000050 40 c9 1d bd 39 7f cb 3d c2 08 3a 3d 85 74 97 bd
       -0.038522005 0.09936375 0.04541851 -0.07395271
000060 15 60 b2 bd af cf f5 bd 17 a0 94 3d c5 4e a6 3c
       -0.087097324 -0.12002503 0.07257097 0.020301232
000070 6d b0 8a 3d bb 1d e1 bd a1 5b 89 3d 54 5e d0 bd
       0.06771932 -0.10991999 0.0670693 -0.10174242
000080 6e 3f 49 3d fc 89 18 3d 6f 16 7f bd 01 88 a6 bc
       0.049132757 0.037240967 -0.062277254 -0.020328524
000090 d6 9b 9a bc 7d b4 68 3c 15 26 ec bc e9 c9 83 bd
       -0.018873136 0.014203188 -0.028826753 -0.06434996
0000a0 7c 26 e4 bc 32 49 b7 bc f1 87 ca bc b6 ba a1 3d
       -0.027850382 -0.02237377 -0.024723025 0.078969404
0000b0 83 b6 b3 3a 74 e6 13 bd bf c5 c5 3d 70 98 4a bd
       0.0013711009 -0.03610845 0.09656858 -0.049461782
0000c0 d3 af 28 3d 7d 5a a2 bd d1 b0 6d 3d 39 26 af bd
       0.041183304 -0.079274155 0.058029953 -0.08552212
0000d0 ef 4e d1 3b df b3 28 3e b4 0f 54 3d fc 7a 65 bd
       0.0063875834 0.16474865 0.05177279 -0.05602549
0000e0 6d 79 aa 3c 22 1c 1c be f1 2d 23 bd bc eb d2 3d
       0.020809853 -0.15245107 -0.039838735 0.10298869
0000f0 87 02 8b 3d e3 79 3a 3e ac 54 78 bd 88 6a 29 3d
       0.067875914 0.18210559 -0.060627624 0.04136136
000100 6c fa 6d bd 9d cc c1 bd c3 54 8d 3d c8 35 12 3e
       -0.05810015 -0.09462855 0.06900933 0.14278328
000110 cf be ca 3c 14 b1 45 3d 5c 7d 10 3d 8e 28 0e bb
       0.024749188 0.048264578 0.035275802 -0.0021691653
000120 ea d8 cf bd d5 e1 65 3d f4 5f 3c bb 6c 1a 0c bd
       -0.10148795 0.056123573 -0.0028743716 -0.034204885
000130 e1 c1 92 bd 74 a3 06 3c f1 c0 a1 bc 39 72 bc bc
       -0.07165886 0.008217681 -0.019745322 -0.023003684
000140 81 b2 71 3c 8a d3 fb bd 1e 8b 35 3d ce 41 dd bc
       0.014752031 -0.12296207 0.044322126 -0.027008917
000150 5a 9f f0 bd b6 55 ea 3d 0f 05 e7 3c c5 89 bb bd
       -0.11749144 0.11442129 0.028200654 -0.09157137
000160 53 19 9c 3a c0 c1 96 bd 1a 2c a3 3d b3 ee 3b bc
       0.0011909403 -0.07361174 0.07967396 -0.011470485
000170 7e cf bb bc 04 78 eb 3c 10 85 a3 3d 1d 1e 18 bd
       -0.022926088 0.028743751 0.07984364 -0.037138093
000180 5c 2e ba bd df 3a aa bb 8a 04 7b bd e4 b0 34 bd
       -0.090908736 -0.0051950063 -0.061283626 -0.04411401
000190 31 cb b9 bd 7b 26 10 bd 28 c0 a9 3d de 1a 89 bd
       -0.09071959 -0.035192948 0.08288604 -0.06694578
0001a0 f3 6c dc bd 5f bd f1 bd 7d d1 6b 3d 73 ae 3c 3d
       -0.10762968 -0.11803698 0.05757283 0.046064805
0001b0 27 d9 ec bd 27 33 94 bd 14 a4 0c bd 95 ae 39 bd
       -0.11564856 -0.07236319 -0.034336165 -0.04533251
0001c0 a1 53 76 bd 60 1e 78 bd ba b0 95 bd cb fd ef 3d
       -0.06013835 -0.060575843 -0.073090985 0.11718329
0001d0 16 95 ca bd 73 60 e0 bd 06 b9 8b bd 96 07 ad 3d
       -0.09891717 -0.10955896 -0.068224 0.084487125
0001e0 e8 8e b4 bd 6b 59 1d bd db 24 48 3d 67 79 75 3c
       -0.0881632 -0.038415354 0.048863273 0.014982558
0001f0 d5 b8 a2 bc e7 38 09 bd c4 f7 f4 bc c0 0c b5 3d
       -0.019863525 -0.033501532 -0.0299033 0.088403225
000200 6a 63 2b bd 55 c6 22 3d ee e3 93 bd e6 ac ce 3d
       -0.041842856 0.039739925 -0.072212085 0.100915715
000210 48 5e 92 3d 47 e7 e9 3b 3d 5b 12 3b 75 a3 7d 3d
       0.07146889 0.007138166 0.0022332214 0.061923463
000220 89 80 e2 bc d4 cf b2 3d bf 63 ae bd 6f 2a a2 3d
       -0.027649181 0.08731046 -0.08515119 0.0791825
000230 d6 db d2 bd 0e 2c a0 3c cf f0 60 bd 03 bb af 3c
       -0.10295837 0.019552257 -0.054917153 0.021451479
000240 77 9a 8e bd 33 80 a5 bd 18 06 d7 bc 59 6f 4a bd
       -0.069630556 -0.08081093 -0.026248023 -0.049422596
000250 41 17 c0 bd a8 21 b2 bd 53 32 53 3d 0f e2 4d 3d
       -0.09379435 -0.08697826 0.051561665 0.050264414
000260 8b 33 a5 3c 1e c1 35 bc 91 85 e7 bc a3 5d 1d bd
       0.02016618 -0.011093406 -0.028261932 -0.038419377
000270 78 66 38 bc 23 80 b5 bd 6b 18 f8 3c ba 22 04 bd
       -0.011254899 -0.08862331 0.03028508 -0.03225968
000280 78 f5 8d bd 90 60 d9 bc 55 06 94 bc c3 94 97 3d
       -0.06931585 -0.026535302 -0.018069426 0.07401421
000290 d6 ee eb 3d e7 a8 33 3c d0 11 00 3d 62 e5 41 bd
       0.11520164 0.010965562 0.031266987 -0.047337897
0002a0 3e ce af 3b fd ac bf bc bd d8 99 bc ec 56 19 bc
       0.005365162 -0.023397917 -0.018780107 -0.009359103
0002b0 0b d8 86 bd 46 ff b8 3d 14 56 d6 3d f6 83 67 3d
       -0.06584176 0.090330645 0.10465637 0.056522332
0002c0 4a 72 82 bd 94 4b 90 3d b1 c2 b6 3d bd e7 9c 3c
       -0.06369455 0.070456654 0.08923853 0.01915347
0002d0 08 56 a9 bc c6 ca 9e 3d be ef 43 bd 3d 31 da bd
       -0.020670906 0.0775352 -0.047836058 -0.10653923
0002e0 82 90 f3 3c bf 1f 43 bc f3 46 e2 bc ed d6 d4 bd
       0.029731993 -0.011909424 -0.027621722 -0.10392556
0002f0 71 eb e6 3c 1b 1b 96 bd 76 f2 b6 3d 87 08 e0 3b
       0.02818844 -0.07329389 0.089329645 0.006836954
000300 55 a6 5a 3d 29 64 e8 bb df 74 42 3d fb 17 be 3c
       0.053381283 -0.007092018 0.04747474 0.023204794
000310 aa a1 6c 3c cd ef c9 3d 9c 92 1b 3d f0 19 b0 3d
       0.014442841 0.098601915 0.037981614 0.08598697
000320 f4 84 8b 3d 56 64 ec 3c 5e a2 44 bd 29 d5 82 3b
       0.06812468 0.028856438 -0.048006408 0.003992696
000330 34 a2 06 bb 3b e6 41 3d 3e 32 66 3d e8 58 04 bd
       -0.0020543458 0.047338706 0.05620026 -0.03231135
000340 b6 9e 73 3d 82 bc 97 bd 53 a0 3b bc 3c 5d 09 bc
       0.05947753 -0.07409002 -0.0114517985 -0.008384045
000350 4b d0 65 bd 24 ea d5 bc 42 c7 13 bd ef ad b7 bd
       -0.056106847 -0.026112624 -0.0360787 -0.08968722
000360 64 ff b3 bd d0 d4 8f bd 18 38 25 3d 4e c9 c3 3c
       -0.08788946 -0.07023013 0.0403367 0.0238997
000370 4c f2 ff bd bc 24 80 3d 52 94 e9 3c 8a e4 90 3d
       -0.12497386 0.062570065 0.028513107 0.0707484
000380 01 ee 20 bd 0d e5 6f 3d 6c c1 b1 3d f8 cb b8 3d
       -0.03928948 0.05856805 0.086794704 0.09023279
000390 a3 e9 cc 3b 0c 24 cc bd 01 07 9f bd 90 87 85 bc
       0.0062534376 -0.09967813 -0.07765008 -0.016299993
0003a0 10 67 e1 bc 34 d0 50 3c e9 30 99 3d bc 52 26 bd
       -0.027514964 0.012744952 0.07480032 -0.040606245
0003b0 a0 60 35 bd 13 3d 10 be 2f 95 8c bd 5e 3d c5 3d
       -0.044281602 -0.14085798 -0.06864392 0.096308455
0003c0 96 8c a5 bd 30 17 a0 bd 52 3e d2 bb 38 9f 99 bd
       -0.08083455 -0.07816923 -0.0064161206 -0.07501072
0003d0 93 87 15 bd ff 37 87 3b f3 3f c0 3d ad e4 87 bd
       -0.036506247 0.0041265483 0.09387197 -0.06635413
0003e0 f0 1d cd bc 15 00 b9 3b c7 62 73 bd d9 39 6a 3d
       -0.02503869 0.0056457617 -0.059420373 0.057184074
0003f0 9c 16 a8 bd 1f bb 88 3d bb ae ea 3c aa 97 a8 bd
       -0.082074374 0.066763155 0.028647771 -0.082320526

fc1.bias f4 [128]
000000 72 f9 3b 3e 6a 02 2f 3e c6 ca 11 be 3b 2d 82 bd
       0.18356875 0.17090765 -0.14237508 -0.06356283
000010 6e c9 fa 3d b0 f8 e5 bd 5c d9 8b 3d 3e 2d bf bc
       0.12245451 -0.11229074 0.068285674 -0.023337003
000020 af c5 fa 3c ec b2 cb 3d 21 9c 79 3d 7b 3b 36 3e
       0.030611841 0.09946236 0.06093991 0.17796127
000030 95 30 89 bc 0a df 13 3e 06 4d c0 3d db 6b 73 bd
       -0.016746799 0.14440551 0.09389691 -0.05942903
000040 b7 67 f5 bd 5b 77 38 3e 64 4f 52 bd a8 a1 1e 3e
       -0.11982673 0.1801428 -0.051345244 0.15491354
000050 13 d8 21 3e 0c cf 87 bb 74 59 f3 bd 58 2c 09 3d
       0.15805082 -0.004144555 -0.11882296 0.033489555
000060 98 bb c5 bd dd 2e b7 3d 10 26 74 bd b8 f3 06 3e
       -0.09654921 0.08944485 -0.05960661 0.13178909
000070 91 c9 27 be 74 bd f0 bc 54 af 61 3d 4b ff 11 3d
       -0.16385485 -0.029387213 0.055098847 0.035643857
000080 27 df 41 3e 57 af 6e bd f0 b6 19 be cd e8 df 3d
       0.18932782 -0.058272686 -0.15011191 0.10933075
000090 4e 09 98 3d b9 b5 f4 3d 7c d0 f1 bd f9 3b eb bd
       0.0742365 0.11948723 -0.11807343 -0.11486048
0000a0 34 c5 93 bd 40 ab f0 3b a7 25 97 3d f6 e9 b2 bd
       -0.07215348 0.0073446333 0.073802285 -0.08736031
0000b0 1e 03 62 bc 3a eb 11 bc f7 9a 4a 3e 63 3a 42 bd
       -0.0137946885 -0.00890618 0.19785677 -0.047418963
0000c0 d3 d6 6f 3e e3 ab 94 bd 9c bd cd bd b5 43 03 be
       0.23421793 -0.07259347 -0.10045931 -0.12818797
0000d0 75 aa 21 3e 5e e0 04 be 72 90 9b 3d d7 e1 7a bd
       0.1578768 -0.12976214 0.0759591 -0.061250534
0000e0 18 5f 50 3e 88 f1 12 3d 65 47 27 be 3e 68 a1 3d
       0.20348775 0.035874873 -0.16335829 0.07881211
0000f0 2d 99 27 3d d5 c0 45 be e2 1f ef 3c 15 b7 46 3e
       0.040917564 -0.19311841 0.029190008 0.19405778
000100 30 b6 9c 3d e7 b3 ad 3c a4 4a 77 bc e4 a6 9e 3d
       0.07651937 0.021203948 -0.015093479 0.077466756
000110 26 e1 bf bd 7f 7c 5b 3e d9 3c 46 3e 6f 03 c0 3d
       -0.093691155 0.2143421 0.19359149 0.09375655
000120 06 df c1 bd 08 37 26 be 7a 8e 01 be b2 a7 36 3e
       -0.094663665 -0.1623193 -0.12652007 0.17837408
000130 c5 dd 35 be 3c 61 1e be 67 30 8a 3c e0 96 c2 3d
       -0.1776038 -0.1546678 0.016868783 0.09501433
000140 ea 4c 1a be 98 3a 36 be e5 f3 db 3c 75 d0 2d bd
       -0.15068403 -0.17795789 0.026849696 -0.04243513
000150 9b d4 3e 3e 24 52 b7 3d 60 cf 3e be 70 c9 ef bd
       0.1863579 0.08951214 -0.18633795 -0.11708343
000160 56 46 0e 3e 23 f3 0b bd 1f be 7c bd f0 02 ca 3d
       0.13894019 -0.03416742 -0.06170475 0.098638415
000170 31 16 c7 bb 8a d2 c3 3d 33 03 a2 3d 05 a0 a7 bd
       -0.0060756435 0.095616415 0.079107665 -0.08184818
000180 6f c5 25 be 3e 40 eb 3d 3b 6d f2 bd d7 45 23 bc
       -0.16188596 0.114868626 -0.1183724 -0.009965382
000190 14 89 07 3d 99 34 ae bd 2f 52 09 3e 42 1c 52 be
       0.033089712 -0.08506126 0.13410257 -0.20518592
0001a0 e3 29 91 3d 5b 26 4e 3d d6 64 82 3d 86 ce 20 be
       0.070880674 0.050329547 0.06366889 -0.15703782
0001b0 48 92 e8 3c 9d 8c f9 3d 5e c0 ca bd b4 20 95 3d
       0.028390065 0.12185023 -0.098999724 0.07281628
0001c0 8b d0 18 3d 6e 2e 30 3e 64 2a e7 bc c5 67 b4 3c
       0.037308257 0.17205212 -0.028218456 0.022022137
0001d0 81 33 f6 bd d7 30 44 bd 7e a0 4c 3d 42 df 34 be
       -0.12021542 -0.04789814 0.049957745 -0.17663291
0001e0 fd 67 36 3e dc 72 01 3e 1b ca d9 3d cf c7 32 3e
       0.17813106 0.12641472 0.10634252 0.17459033
0001f0 1a d2 44 bd 87 9e 3d 3d f1 90 51 3d 0d 2c 34 be
       -0.04805193 0.04629376 0.051163618 -0.17594929

fc2.weight f4 [128, 128]
000000 ec 38 a7 3d ca 00 ee bc 48 a3 47 3c 95 e2 84 bd
       0.08165154 -0.02905311 0.012184925 -0.064885296
000010 ed 75 53 bd 46 13 c1 bc 53 a0 62 3d 5f 1b 59 3d
       -0.051626135 -0.02356876 0.05532868 0.05300462
000020 28 74 34 3d df 7e 9d 3d 64 4f 53 bc cd d9 3a bd
       0.044056088 0.07690214 -0.012897346 -0.045617867
000030 c2 68 2f 3d aa 56 0d bd 57 28 e5 3d c5 59 87 3c
       0.042824514 -0.034506477 0.11189335 0.016522298
000040 ef 7e b6 bd 2e f1 cb 3b 5e 9e 56 3b fc f4 82 3d
       -0.089109294 0.006223819 0.0032748203 0.06394383
000050 d6 8f 26 3c 40 03 9e bd dc 0c a0 3d 25 d7 00 ba
       0.010166129 -0.07715464 0.07814953 -0.00049148715
000060 23 f2 35 bc 5b 9c ca 3d bc f9 8b bd 08 73 9e 3d
       -0.011105093 0.09893104 -0.068347424 0.07736784
000070 d8 7a 0c be 2c 9b 3e bd f0 1d 13 bb f0 81 8a bd
       -0.13718736 -0.046534702 -0.0022448264 -0.06763065
000080 fb c6 68 bd 5c a9 ce bc a1 59 4d 3d a1 ec c2 bb
       -0.056830388 -0.025227241 0.050134305 -0.0059486185
000090 ca 3b 2b bd 01 f8 d3 ba e6 65 3a 3b 59 69 90 3c
       -0.041805066 -0.0016171933 0.0028442084 0.017628359
0000a0 8d b8 29 3d 71 ca 0b be 98 73 92 bd f2 e6 3b 3d
       0.041435767 -0.13651444 -0.07150954 0.045874543
0000b0 e4 1d b3 3d 38 82 ca 3d d0 06 11 bc 97 de 0e 3b
       0.087459356 0.098881185 -0.008851722 0.0021800154
0000c0 37 99 d6 bd 0f eb fa 3d dc c2 03 3d db 33 df bc
       -0.10478442 0.12251865 0.032168254 -0.027246406
0000d0 ac 1c c8 bc 47 0b db 3b 33 4b 60 bd e4 bc 20 bd
       -0.024427734 0.006684694 -0.054759216 -0.03924264
0000e0 d6 0b 0e 3d 05 f2 78 3d bd 47 06 bd bd 63 88 b9
       0.034679256 0.060777683 -0.03278326 -0.00026014252
0000f0 92 19 f7 3c 67 2c 8a bc 52 ad 98 bd aa 35 92 bd
       0.03016356 -0.016866876 -0.07454933 -0.07139142
000100 d3 89 7d 3d 01 db 1f 3d d7 5b 7b bd 70 26 83 bb
       0.061899018 0.039027218 -0.061366882 -0.004002385
000110 88 47 b2 bc df e6 39 bd 24 fc 92 3d 15 c1 8b 3d
       -0.021762624 -0.04538619 0.07176998 0.06823937
000120 1b 55 a7 bb 68 a9 41 3d 3c a9 12 3d 7c 5d 63 bd
       -0.005106581 0.0472807 0.035805926 -0.055509076
000130 07 bf 72 bd 64 51 52 3d 02 23 cb 3d f4 ad 47 bd
       -0.05926421 0.05134715 0.099187866 -0.04874988
000140 85 1f b5 bd de 68 37 bd a7 0b 81 bc 3f c1 38 bd
       -0.088439025 -0.044777744 -0.015752627 -0.04510617
000150 10 c1 8a 3d a1 4d 61 3c 18 84 56 ba 77 9d da 3d
       0.06775105 0.013751418 -0.00081831357 0.10674565
000160 fc 5c 67 3d e2 de 87 3d 91 13 57 bd 9b aa 4f 3d
       0.05648516 0.066343084 -0.052508894 0.05069981
000170 97 3c 8a 3d 2f 0e 64 3d f9 bb b0 3d 27 8c 5f 3d
       0.06749838 0.05567759 0.08629603 0.05457702
000180 73 28 df bd 7c 51 a8 bd 8e 66 77 3d f4 c6 90 3d
       -0.10896387 -0.08218667 0.06040054 0.07069197
000190 3c 52 06 3d f5 cd 26 bc 9d b0 32 bd 1d 51 ad bd
       0.03279327 -0.01018094 -0.043625463 -0.08462737
0001a0 ec bc 52 bd c8 50 62 bd 17 fc 5e 3d 25 81 a5 bd
       -0.0514497 -0.05525282 0.05443963 -0.08081273
0001b0 0e 8a a7 3d 14 dd a0 3d eb 9b a3 3d 35 9d 6a 3c
       0.08180629 0.07854667 0.07988723 0.014319708
0001c0 ae 74 68 3d 40 86 db 3c 3b 28 24 3a fe 81 87 3d
       0.0567519 0.026797414 0.00062620983 0.06616591
0001d0 1c 05 b8 bd 7e da e4 3d 14 bd 01 3c af f7 b6 3c
       -0.089853495 0.111744866 0.007918615 0.022334902
0001e0 4f 27 f1 3c 46 5d c3 3d 0e 7f 4d bd d9 07 24 bd
       0.02943769 0.09539275 -0.050169997 -0.040046547
0001f0 23 00 12 3d e7 d8 4a bc 08 15 72 3d c4 6d 63 bd
       0.03564466 -0.012380815 0.05910209 -0.055524603
000200 9c ad f4 bc e1 db a4 3c b2 26 73 3c 9b 3a 85 bd
       -0.02986794 0.020124378 0.014840769 -0.06505319
000210 a8 3b 86 bd 10 6c 29 3b 3a 5a b4 3d 97 b2 01 bd
       -0.06554347 0.0025851764 0.08806272 -0.031664457
000220 4c 8b 20 bc 80 96 61 bd ff 39 a2 3d 20 ef df 3d
       -0.009798836 -0.05507517 0.07921218 0.10934281
000230 21 e5 a8 3c 70 22 92 3d 7f 35 ae 3d 1c 9d ad 3d
       0.02061707 0.07135475 0.08506297 0.08477232
000240 d3 c3 ec bd 0e a9 e2 3d 51 2d 37 3d 17 e3 de bc
       -0.11560788 0.11067401 0.04472095 -0.027207894
000250 3d a8 8d 3d 10 db 33 bd f2 c7 a9 3d 6a 65 b2 3d
       0.069168545 -0.043910086 0.0829009 0.087107494
000260 ca 54 d7 3c 7e 73 33 3d 01 ca 08 3d 2f 3d 81 bc
       0.026285548 0.043811314 0.03339577 -0.015776245
000270 80 a0 fe bd 04 5a eb 3d 05 30 38 3c a6 36 2a bc
       -0.12432957 0.114917785 0.0112419175 -0.010389006
000280 67 8a 30 bc 41 f9 a5 3b 24 8c 3e 3d 7a 19 76 3c
       -0.010775185 0.005065114 0.046520367 0.0150207225
000290 3b 2c 79 3d 47 a7 06 bd d5 37 4b 3d 91 5b 4f 3d
       0.060833197 -0.03287437 0.049613792 0.050624434
0002a0 e6 e4 46 bd b5 79 97 bd b9 51 89 bd f5 43 65 3d
       -0.04855814 -0.07396261 -0.067050405 0.055973012
0002b0 42 56 69 3b 3b 23 64 3c 41 70 d3 bc 6f 2b 99 3c
       0.0035604392 0.013924415 -0.025810363 0.018697469
0002c0 8e 0b 6a bd 4e 5b c1 3d 2c 01 fd bd 10 47 3c bd
       -0.057139926 0.09441243 -0.12353739 -0.045966208
0002d0 af d1 d4 bd 52 d6 69 3d 7d 35 66 bd c4 c4 90 3c
       -0.103915565 0.057089157 -0.056203354 0.01767195
0002e0 64 ee 60 3b 52 35 96 3c 17 eb 70 3b 6e ad ab 3d
       0.003432178 0.018335972 0.0036761218 0.083826885
0002f0 bc 69 40 bd 43 6a 1b 3d 13 86 a2 3d 95 b3 1c bc
       -0.046975836 0.037943136 0.07935729 -0.0095643
000300 8f 01 82 bd 11 ed a5 3d fd e8 03 3e 9b 76 b3 3d
       -0.063479535 0.081018575 0.12881847 0.087628566
000310 0d f5 d4 bc fc c8 9d 39 d5 b5 1d 3e be 9b 57 b9
       -0.025995756 0.0003009512 0.15401395 -0.00020562016
000320 28 3c df 3c 02 ba 6d 3d 3d eb 34 3d 4e f0 73 bd
       0.027250364 0.05803872 0.044169653 -0.059555344
000330 3a e7 42 bc 03 b6 b1 3d d0 82 c5 3d 04 5b 6f bc
       -0.011895949 0.08677294 0.09644091 -0.014609102
000340 72 4d ee 3d 20 05 5b bd 98 b5 d6 3d e6 dc 75 3c
       0.11635865 -0.053471684 0.10483855 0.01500628
000350 c6 5d 18 bd 36 61 d9 3d 32 ee b0 bd 02 d2 6c bd
       -0.037198804 0.10614245 -0.08639182 -0.057817467
000360 e2 69 07 3d c9 f4 79 3d b4 6d b5 bc a2 f8 4c 3d
       0.033059962 0.06102446 -0.022147037 0.050041802
000370 f8 36 74 3c 2e a0 99 3d df 2a f7 bc eb 17 af 3d
       0.014905684 0.07501255 -0.03017181 0.08549484
000380 a4 24 c1 bd 85 dc 98 bb fa 4c 03 3d df 94 2f 3d
       -0.09430817 -0.00466496 0.032055832 0.042866584
000390 e5 60 4f bc 9b 06 c7 3d 93 25 95 3c 6f 58 9c bd
       -0.012657379 0.09718057 0.018206393 -0.07634055
0003a0 b5 f7 27 3d 41 d3 80 bd e6 f5 69 bd af 39 cc 3d
       0.041007716 -0.062902935 -0.057119273 0.0997194
0003b0 29 b8 ad bc 25 82 ad bd 2f c2 c6 3d 7e 81 88 3d
       -0.021205978 -0.08472089 0.09705006 0.06665324
0003c0 b9 d0 4f bd ef 3b d1 3c 84 c5 92 3c 3e 4b 91 3d
       -0.050736163 0.025541274 0.017916448 0.070944294
0003d0 81 dd 8a bd 16 57 06 3e 48 21 8f bd 1f ef 6a 3c
       -0.0678053 0.13119158 -0.0698877 0.0143392375
0003e0 2c 04 79 3c 6e 1e 0b 3d c5 c0 98 3b 10 54 19 3d
       0.015198749 0.033964567 0.004661652 0.037433684
0003f0 6f bc a7 3d 24 13 92 bd 52 66 a5 bd f3 58 8d 3d
       0.08190238 -0.07132557 -0.08076157 0.06901731

fc2.bias f4 [128]
000000 90 c9 ab 3d 93 6b 87 3d 79 87 20 3d e9 1f e2 bc
       0.08388054 0.06612315 0.039191697 -0.027603107
000010 c7 25 9c 3d 09 8d 3c 3b 8c 67 7a 3d b7 ee 3d bd
       0.07624393 0.0028770587 0.061133906 -0.046370234
000020 be b4 39 3d 0d 4f ec 3b 6f 3c 99 3d 63 92 24 3d
       0.045338385 0.007211572 0.0748223 0.040178668
000030 cd 92 8c 3d 64 c9 a3 bd 05 46 35 3d 22 b0 ad bd
       0.068639375 -0.079973966 0.04425623 -0.0848086
000040 2e f4 af bd 11 49 60 bd 17 80 a3 bd 8b d1 7d 3b
       -0.085914955 -0.05475718 -0.079834156 0.0038729634
000050 3f 9f 1f 3d 62 c8 5d 3a 4d 91 d0 bc b1 c1 2a 3d
       0.03897023 0.00084603403 -0.02545991 0.041688625
000060 43 1d a9 bd 0c ad a3 3d 53 be 2d bd d7 8c 42 bd
       -0.08257534 0.079919904 -0.042417835 -0.047497597
000070 7b 60 32 bc 8f 7c de bb 91 5d 64 3d 55 54 00 3d
       -0.010887261 -0.006789751 0.055753294 0.031330425
000080 3d ab 80 3d 2e 57 9a bc 87 13 87 bc 33 14 05 3d
       0.06282661 -0.018840399 -0.016488804 0.032489967
000090 af 32 60 3d e5 3d 30 3d e9 1a 47 3d 3e 63 de 3c
       0.054735836 0.043027777 0.048609648 0.027146932
0000a0 b6 aa 50 bd 41 e5 16 3d 90 05 96 bd 57 6b 5e bd
       -0.050944053 0.036839727 -0.0732528 -0.054301586
0000b0 b9 51 57 bd 78 75 86 bd 55 cb 6e 3d 8e f3 76 bd
       -0.05256817 -0.06565374 0.05829938 -0.060290866
0000c0 56 9d 7b bd 0e 33 80 bd c3 e3 82 bd 83 11 50 3d
       -0.061429344 -0.06259738 -0.06391098 0.05079795
0000d0 fe 30 71 bc e6 b3 c5 3c 9a 91 c3 3c c1 bf cb 3d
       -0.014721153 0.024133634 0.02387314 0.099486835
0000e0 d0 48 53 bd 1a e6 a9 3d bd 55 49 3d c0 77 d8 ba
       -0.05158311 0.082958415 0.049154032 -0.001651518
0000f0 ac 7f 1c bd b8 38 51 3d bf 1b ea 3b 90 f5 24 3d
       -0.038207695 0.05107948 0.007144421 0.04027325
000100 6b cf a1 bd 86 a0 03 bd 51 e8 58 bc 3e 15 83 bd
       -0.0790089 -0.03213551 -0.013238982 -0.06400536
000110 54 50 75 bd 81 30 2c 3d 25 32 83 bd 92 97 94 3d
       -0.05989106 0.042038444 -0.06406049 0.07255472
000120 f9 ed e3 3d 8b 5c 86 3c 1d 0a 62 ba db f6 af 3c
       0.11129374 0.01640155 -0.0008622723 0.021480015
000130 94 2f c3 bc 64 59 ad 3d 8a 67 29 bd 5e 10 18 bd
       -0.023826398 0.084643155 -0.04135851 -0.037124984
000140 c7 7c 12 bd 50 2f 58 bb 80 64 63 bd 4f 40 e1 bc
       -0.03576353 -0.0032987185 -0.055515766 -0.027496485
000150 bd b6 9c bc f3 6b 1a 3d 38 93 5e bd f0 f5 b5 3c
       -0.019130105 0.037700605 -0.054339617 0.022211999
000160 c2 b8 33 3c fc 15 48 bc 7d 82 81 bd 11 b6 c8 3c
       0.010969343 -0.012212273 -0.06323717 0.024500879
000170 ff 76 67 3d ab 25 b3 bc b9 5a ec ba 4b de 6e 3d
       0.056509968 -0.021868547 -0.0018032409 0.058317464
000180 5e b7 76 3c 1d 4a 62 3c c2 9d b6 3c 69 9b 8b 3d
       0.015058367 0.013811615 0.022292022 0.068167515
000190 d8 e0 5f 3d d0 48 be bc 2b ba 6b 3d c0 a2 32 bd
       0.054657787 -0.02322808 0.05755059 -0.04361224
0001a0 ea 6b 14 3c 52 03 8d bd 53 bc 3e 3c e8 82 43 3d
       0.009058932 -0.06885399 0.01164158 0.047732264
0001b0 06 9f e7 3c f6 c5 57 bd 66 43 af bd ad 54 02 bd
       0.02827407 -0.052679025 -0.08557777 -0.031819034
0001c0 e8 54 dc bc c3 cb af bd ae 04 25 bd 4d 00 09 bd
       -0.026895955 -0.08583786 -0.040287666 -0.033447552
0001d0 68 47 57 bd c9 34 3e 3d 70 f2 7e 3d 1b ec 8d bd
       -0.052558333 0.04643706 0.062242925 -0.06929799
0001e0 98 d4 01 3b b9 85 08 bd 87 70 82 3c e6 93 16 3d
       0.0019810554 -0.033330653 0.015922798 0.03676214
0001f0 02 66 bd bc 17 3e e6 3d ed 61 23 3d 43 fa 86 bd
       -0.02311993 0.112423114 0.03988831 -0.065907024

fc3.weight f4 [128, 128]
000000 38 6f e7 3b 90 e7 d2 bc 60 cc ec 3c 76 36 f1 3d
       0.007062819 -0.025745183 0.028906047 0.11777966
000010 cb e8 c6 bd e7 47 8a 3d 17 d9 93 3c 88 a0 73 3d
       -0.097123705 0.067519955 0.018047852 0.059479266
000020 49 4d 20 bd 54 5d d0 bc 7f 2f 93 3d c3 d8 a5 3d
       -0.039136205 -0.025435127 0.071867935 0.08097985
000030 bc b2 13 3d 41 b1 59 bc d5 72 8c 3d 8a 16 c1 bc
       0.036059126 -0.0132868895 0.0685784 -0.023570318
000040 bd 63 e8 bc ad d8 34 3d 06 84 cd bd 03 77 59 3d
       -0.028367871 0.04415195 -0.10034947 0.053092014
000050 83 5e 22 bc ae c0 3f bd a5 eb 4f bd 01 98 a1 3d
       -0.009910229 -0.046814613 -0.050761838 0.078903206
000060 99 91 e7 bc 3d 75 cc bd 26 61 99 3d b7 e5 55 bd
       -0.028267669 -0.09983299 0.07489233 -0.052221026
000070 64 7d 0b bc 15 a4 60 3d e6 45 82 bd 7c d4 4a bd
       -0.008513782 0.05484398 -0.06360988 -0.049519047
000080 ca 7b 7f 3b 4f a9 17 3d e6 db b1 3d 9a 77 db 3c
       0.0038983696 0.0370267 0.086845204 0.026790429
000090 a0 71 71 3d 39 6d 33 3d 19 4c c1 3d 94 d3 48 bd
       0.058946252 0.043805335 0.094383426 -0.0490299
0000a0 2b 77 3a bd fd 2d 93 3d bd 9e 00 be a4 86 80 3d
       -0.045523804 0.07186506 -0.12560554 0.06275681
0000b0 9f 42 c0 bc 0e 2b dc bc bc c6 2c bd 20 2b 19 bd
       -0.023469267 -0.026875999 -0.042181715 -0.037394643
0000c0 74 2b 79 bd 9d cf 9e 3d a3 4b 67 bb 3a 75 26 3d
       -0.060832456 0.07754443 -0.0035292886 0.04063914
0000d0 01 89 24 bd 7b c2 28 3c 2f 32 0b 3c 95 95 ac bc
       -0.04016972 0.010300274 0.008495851 -0.02106742
0000e0 a7 0b 4d bc 95 d7 59 bc 81 b3 62 3d 30 65 88 bd
       -0.012514985 -0.013296028 0.05534697 -0.06659925
0000f0 ab 84 38 bd 62 2f 8c 3a 66 ff db bc e3 d6 3f bd
       -0.045048397 0.0010695274 -0.026855182 -0.04683579
000100 c2 02 54 3c 3e a9 62 bd 44 20 81 3d 57 06 90 bc
       0.012940111 -0.055337183 0.06304982 -0.017581148
000110 d6 aa b2 bd d9 24 0c bd 7f 32 77 bc 9b a3 c1 bc
       -0.087239906 -0.03421483 -0.015087723 -0.023637583
000120 45 5b ff bc bf 3a f9 3b 12 ca 92 3d 5f 21 fa 3d
       -0.03117145 0.00760588 0.07167448 0.12213396
000130 68 58 30 bd 66 00 91 bd 0b 69 bf bc 2e 4c 62 3d
       -0.04305306 -0.07080154 -0.023365518 0.05524843
000140 d0 6f e6 bc 04 b1 16 3c 85 03 ac bd 6f 81 b2 3d
       -0.028129488 0.009197477 -0.08399109 0.08716094
000150 ab f2 b7 bd 48 49 d6 bd 3c b1 0c 3d 7b 05 28 bd
       -0.08981832 -0.10463196 0.03434871 -0.04102085
000160 51 39 75 bd dc b0 54 3d ac f2 32 bd ea 3e ac bd
       -0.059869114 0.05192648 -0.04368846 -0.084104374
000170 5e 11 00 bc 25 b2 19 bd 92 fd 97 bc af 0d a3 bd
       -0.007816641 -0.037523407 -0.018553529 -0.07961594
000180 fa ca bb 3c ad 47 b5 bc f2 87 6d bd 3d b1 1c 3d
       0.022923935 -0.022128904 -0.057990976 0.038254965
000190 52 a4 1d bd 2b dc 78 bd 66 61 d0 3c e3 61 c8 bd
       -0.038486786 -0.060756844 0.025437068 -0.097842954
0001a0 b0 6c 94 ba d0 a9 84 3c 0d cd 2c 3c 64 44 32 bd
       -0.0011323895 0.016194254 0.010546935 -0.043522254
0001b0 2c 35 61 bd 79 c1 b1 ba ca 51 d2 3c bb b6 53 bd
       -0.05498235 -0.0013561688 0.025673766 -0.051687937
0001c0 c6 09 6e bc b9 45 51 bd cf 7c 9c 3d e0 6a 8a 3c
       -0.014528697 -0.051091883 0.07640993 0.016896665
0001d0 a1 06 79 bd bb 69 30 bd d7 64 59 3d d3 bf ac bd
       -0.060797337 -0.043069582 0.053074684 -0.08435025
0001e0 30 4d 05 bc 81 58 52 3c 4b b1 1a bd 00 f7 0d 3d
       -0.008136079 0.012838484 -0.037766736 0.034659386
0001f0 c8 c4 8a 3b 36 58 35 3d 12 3d 7f 3c 41 3c 24 3d
       0.004234884 0.044273578 0.015578525 0.040096525
000200 38 d7 7e bd 59 5b a9 3c d3 a0 c5 bd 18 b9 38 3d
       -0.062216967 0.02067344 -0.096498154 0.045098394
000210 51 66 8e 3c 9e b8 3d bd ad b4 b2 bd 66 6d 9b 3d
       0.017382773 -0.046318643 -0.087258674 0.075892255
000220 9c c6 bd 3d 37 b9 a6 3c 64 53 bb ba 7e 1d 22 3d
       0.09266397 0.02035199 -0.001429182 0.039578907
000230 28 db d9 3d 8b bb 9d 3d 62 c5 41 bd a6 b7 e3 3c
       0.10637504 0.077017866 -0.04730738 0.027797531
000240 75 55 57 bc 23 2b 99 3d 67 4e 02 3d 77 34 07 bd
       -0.013142933 0.07478931 0.03181305 -0.03300902
000250 68 04 ca 3c 46 b5 90 3d 57 50 59 3d 45 6e a8 bc
       0.024660304 0.07065825 0.053055134 -0.020560393
000260 92 3b 08 bc e2 26 df bc 83 62 84 bd 38 5b 26 3d
       -0.008314984 -0.02724022 -0.06464102 0.040614337
000270 3e 67 c2 3d 56 d9 42 bc 9e 8c 69 3c 0e 90 54 bd
       0.09492348 -0.011892637 0.014254717 -0.051895194
000280 a7 54 92 3d 2b be ef 3b 6d 0f da 3c dd ef 8d bc
       0.071450524 0.007316371 0.026618684 -0.01732629
000290 5d aa c9 3d c6 01 db bb 65 a9 54 3d bf d5 a3 bc
       0.09846947 -0.006683561 0.05191936 -0.019999383
0002a0 db d5 b6 3d 46 ed b1 bd b4 51 12 bd 1c 63 aa 3d
       0.089275084 -0.086878344 -0.03572245 0.08319685
0002b0 11 83 74 bb c8 14 33 3d 93 25 55 3d b8 bf 14 3e
       -0.0037309567 0.04372099 0.052037787 0.1452626
0002c0 ef 18 44 3d f9 83 96 bd 8c dd 76 3b 9a 13 79 bd
       0.04787534 -0.073493905 0.0037668673 -0.06080971
0002d0 04 c2 56 bd 63 ed 82 3d 87 bb d7 3c 4b 9c cf bd
       -0.05243112 0.06392934 0.026334537 -0.101372324
0002e0 3c c9 63 3c 7a ed 9f 3d 6b e1 85 3c 74 92 99 3b
       0.0139029585 0.07808967 0.01634284 0.004686648
0002f0 81 e2 80 bd f5 d0 a2 bc 3a 66 07 bd d7 1b 45 3d
       -0.06293202 -0.01987503 -0.033056475 0.048122253
000300 45 3d b0 3d cf 5f 9b 3d 07 14 d1 bc 0f cd 68 bc
       0.08605436 0.075866334 -0.025522245 -0.014209046
000310 1d 99 bf 3d e3 e2 8e 3c 0d 13 bb bd b4 26 81 3c
       0.09355376 0.017442172 -0.09134493 0.015765525
000320 b6 72 64 3d e1 42 8a bd e9 b5 d3 bd 55 09 33 bb
       0.05577346 -0.067510374 -0.10337431 -0.0027318795
000330 a8 6c 3f bd c6 c5 03 bd 5a 0d 98 3d d3 19 0b 3c
       -0.046734482 -0.032171033 0.074244216 0.008490044
000340 2f a9 b2 bc f3 05 bf 3b 57 6f 15 bd 46 ef 3a bd
       -0.021809189 0.0058295666 -0.036483135 -0.045638345
000350 a2 09 9e bb d9 d7 f6 3d cb 6f b9 3d b5 d8 61 3c
       -0.0048229257 0.120528884 0.09054526 0.013784577
000360 aa 86 0e bb 43 b9 4d 3d ea 10 8e bc 74 02 0a 3c
       -0.0021747747 0.050225507 -0.01734205 0.008423436
000370 a2 d7 9c 3c 2b 66 92 bd 79 62 78 3d 65 b3 14 3a
       0.01914579 -0.07148393 0.060640786 0.0005672484
000380 b3 47 3f 3d 9d ae ef 3d d1 cb e6 3d 42 9c dc 3c
       0.046699237 0.11703227 0.11269344 0.026929978
000390 b3 34 bb 3a b8 0b 83 bd f0 0e d0 3d d3 cc a6 3c
       0.0014282673 -0.063987195 0.10159099 0.02036134
0003a0 2d f6 b3 3d 43 c7 03 3e b6 1e 96 3d 13 b2 ef bd
       0.08787189 0.12868981 0.073300764 -0.11703887
0003b0 82 21 f1 bb d4 14 23 3c f7 71 58 3c 40 4a bd 3c
       -0.007358731 0.009953696 0.013210765 0.023106694
0003c0 db 7c a7 bd de e7 a2 3c 51 99 96 bd ef 93 55 bc
       -0.08178111 0.019885954 -0.073534615 -0.013035758
0003d0 7f b1 7c 3d 5d 1a bc bc f9 9a 13 3b 8a ae 4c 3c
       0.06169271 -0.02296179 0.002252279 0.012492785
0003e0 58 b2 df 3d 4f a8 80 bc 52 06 66 bd 8f 93 02 be
       0.10922688 -0.015705256 -0.05615837 -0.12751602
0003f0 f1 b6 8b 3d dd 86 25 3d c1 eb d1 3d 27 16 49 3d
       0.06822003 0.04041182 0.102500446 0.04909339

fc3.bias f4 [128]
000000 4c 6a ad 3d 39 86 28 3d 96 58 25 3d dd ff ec bc
       0.0846754 0.04114363 0.040367685 -0.028930599
000010 f1 a8 01 3d b7 32 ff 3c 97 65 fa 3b 45 8c 7e 3d
       0.031655256 0.031152112 0.007641505 0.06214549
000020 95 9d 9b bd 81 97 eb 3c 68 66 b9 bd 7c 39 bb 3d
       -0.07598416 0.028758766 -0.090527356 0.09141824
000030 77 ca 59 3c 55 80 0b bd 18 0a 8f bc b3 79 c4 3d
       0.0132929 -0.034057934 -0.017460868 0.09593525
000040 82 38 67 3d 34 93 d4 bc 9e ee 8a bd 96 94 91 bc
       0.056450374 -0.025949098 -0.06783794 -0.017771047
000050 7e 7f b3 bc 99 90 90 bc a7 4e 45 bd a9 63 c0 3c
       -0.021911379 -0.017647075 -0.04817071 0.023485022
000060 4c c0 94 bc 81 3e 07 bc 58 69 21 3d 32 a9 59 bd
       -0.0181581 -0.008254648 0.039407104 -0.053139873
000070 32 2f 19 bd 1b 33 b8 3d ac a9 31 bd 0b d0 96 3d
       -0.037398525 0.089941226 -0.043374702 0.073639
000080 de f0 5a bd e7 34 70 3d e6 ca 65 3c 49 a3 c5 bc
       -0.053452365 0.0586442 0.014025426 -0.024125712
000090 5b 41 07 3d 89 ca cc 3d 1d 90 86 3c ca 12 e1 3d
       0.033021312 0.09999568 0.01642614 0.10989912
0000a0 e3 db 68 bb ff 23 b5 3d f8 5b 5b 3d 8c ba 78 bd
       -0.0035531453 0.08844756 0.053554505 -0.06072478
0000b0 f3 1f 90 3c 4a 44 97 3d 1a 9d fa 3b d1 d3 ba bb
       0.01759336 0.07386072 0.0076481225 -0.00570152
0000c0 be 33 34 3d b9 15 b4 bb 13 b1 c5 bc 71 6a bf 3d
       0.043994658 -0.0054957536 -0.024132287 0.09346474
0000d0 2c cd 40 3c b6 3a 0f 3d fa b3 64 bd 94 df ae 3d
       0.011767667 0.0349681 -0.0558357 0.08538738
0000e0 6c 73 42 bd fa 82 a2 bc 80 67 8f bd ea cc a7 3c
       -0.047473356 -0.019837845 -0.07002163 0.020483453
0000f0 26 9f d8 3b 1e c7 81 3c d7 a2 12 3d 7c bf 8f 3b
       0.006610769 0.015842017 0.035799827 0.0043868404
000100 d9 f0 89 3c 24 98 ae bc fe 68 cc 3c f3 1d a8 3c
       0.016838478 -0.02131278 0.024952408 0.020522093
000110 31 c2 c2 bc f4 e5 aa bd 48 bc c1 3d f2 ab 2a 3d
       -0.023774238 -0.08344641 0.0945974 0.041667886
000120 27 07 0b bd e2 00 a3 bd b2 29 ad 3c 16 76 fe 3b
       -0.033942368 -0.07959153 0.021138046 0.007765542
000130 1e f7 16 bd 70 c0 83 bc 86 51 e2 3c 9b b9 8b 3d
       -0.036856763 -0.016082972 0.027626764 0.06822511
000140 64 4b 3d 3c 8b d3 24 3d 09 8d 20 3d ec 1e 0e 3d
       0.011553619 0.040240806 0.039197 0.03469746
000150 ab 31 30 3d 49 dd 4d bd 2e ec 8d 3d 06 11 b0 3b
       0.043016117 -0.050259862 0.06929813 0.005373123
000160 e2 3d bd 3d d5 7c 87 3c 79 f7 b2 3c be ab 69 3c
       0.09240319 0.016539017 0.02184652 0.014262138
000170 bc de 32 bd 67 e8 43 bd 17 b9 84 bd 6e d0 23 bd
       -0.043669447 -0.047829058 -0.064806156 -0.039993696
000180 70 a9 00 3e 59 5e e0 bc 76 d4 80 bd c1 b9 60 bc
       0.12564635 -0.027388738 -0.06290524 -0.013716162
000190 c4 9a 86 3d b9 31 12 bd 7d 73 0c bc 5e 1e 92 bd
       0.06572488 -0.03569195 -0.008572456 -0.07134698
0001a0 9b eb 69 bd 02 95 8d ba 39 bf ae 3c 4a e3 a3 bc
       -0.057109457 -0.0010801854 0.021331416 -0.02000584
0001b0 db 39 c9 bc 17 7f b1 3c 4f b0 79 bd 31 1a 7c 3d
       -0.02456372 0.021667046 -0.060959157 0.061548416
0001c0 03 5d 11 bd fe 8b 50 bd ce 6b 9a bc ac e9 89 3d
       -0.035489094 -0.050914757 -0.018850233 0.067340225
0001d0 ec bf 05 bd 9b 2f 7f bd 60 53 32 3d 8f 68 8b 3b
       -0.032653734 -0.06230126 0.043536544 0.0042544077
0001e0 fe 51 7b bd 45 a3 8d 3d 70 92 4c bd da 65 91 bd
       -0.06135749 0.06915907 -0.04994434 -0.07099505
0001f0 b5 40 9c bc fc c2 97 bd f7 17 4f 3d 67 e7 90 bc
       -0.019073823 -0.07410237 0.050559964 -0.017688466

fc4.weight f4 [2, 128]
000000 5a 5c 7c 3b 8a c5 f9 bc 21 f3 80 3d 50 a8 b6 3c
       0.0038507194 -0.030489702 0.06296373 0.022297055
000010 eb cc 2b 3d f7 48 86 bd a2 66 5e 3d 19 85 2a 3d
       0.041943472 -0.06556886 0.054297097 0.041630838
000020 0d db 52 bd 8e 86 ef 3c 86 79 4b bd cc fc 1c bd
       -0.051478434 0.029238965 -0.04967644 -0.038327023
000030 83 ed 70 3c 5b 72 a3 3d f1 99 42 3d 2d 2d 25 3c
       0.014705065 0.07980796 0.04751009 0.0100815715
000040 35 ff 41 3d 65 b0 01 bd e2 30 dc bc bf 08 ae 3c
       0.047362525 -0.031662364 -0.026878778 0.021244405
000050 32 0f 85 bd 73 05 8f 3d 35 ff 4a 3c 4c 33 44 3d
       -0.06497039 0.06983461 0.012389948 0.047900483
000060 25 0c 82 3d b3 46 8b bd 0e cf fd bc 2c c6 70 bb
       0.06349973 -0.06800594 -0.03098252 -0.0036739213
000070 9a d4 44 bc 20 2f 1b 3d 5e 5a 67 3d d8 10 c3 bc
       -0.012013579 0.03788674 0.056482665 -0.023811743
000080 42 3e a9 bd 1b 9a cb 3d 6b b8 54 3c 62 b9 f1 3c
       -0.08263828 0.09941503 0.012983422 0.029507343
000090 86 8f 67 bd cb d4 46 3d bb 4a 6c 3d 67 24 56 3d
       -0.05653336 0.04854278 0.057688456 0.05228081
0000a0 e3 cf b9 bc 58 16 4e 3d 33 3f ea bc 87 bd 95 bd
       -0.022682136 0.050314277 -0.028594589 -0.0731154
0000b0 24 ac 48 bd 3c 8b 68 3d a4 c3 3c 3d e9 4b 8b bd
       -0.04899229 0.05677341 0.046085015 -0.06801588
0000c0 1e 53 11 bd fe 6a 3e 3d e4 80 11 3c 74 f1 45 3d
       -0.035479657 0.046488754 0.008880828 0.04832597
0000d0 10 ed 5d 3d 07 a3 b4 3d 94 42 e3 bc 10 6d 88 bc
       0.05418116 0.088201575 -0.027741708 -0.016653568
0000e0 80 00 72 bd 4b 24 54 bd 54 ba 04 bd b6 32 1b 3d
       -0.059082508 -0.051792424 -0.03240426 0.03789016
0000f0 20 d5 4e 3c 42 f1 8e bc 2e 9c 0c bc fc ea 18 3d
       0.012624055 -0.017449025 -0.008582158 0.037333474
000100 62 11 9c bc 41 a2 8a 3c 95 ee fa bc 70 41 77 3d
       -0.019051258 0.016923072 -0.030631343 0.06036514
000110 b0 b4 b7 3d 05 53 58 bc 2f 91 3a 3d 19 8f c3 bd
       0.0897001 -0.013203387 0.045548614 -0.09548778
000120 62 14 06 bd d8 60 55 bd 9c 92 59 3d e2 6c b8 3d
       -0.032734282 -0.05209431 0.053118333 0.09005143
000130 c7 25 4c 3d 85 82 3e bd 58 a9 2e 3d 02 0d 4b bd
       0.049840715 -0.046511192 0.042641968 -0.049572952
000140 c7 a3 86 bd db bc 8b bd 8d d2 98 bd a7 31 38 3d
       -0.06574207 -0.06823131 -0.074620344 0.044969227
000150 df 3e 6b 3d d8 b4 bd 3c 3d 02 71 3d 6a c2 1d 3d
       0.057433005 0.023157522 0.058840025 0.038515486
000160 ad 86 3b bd 83 6c 1e bd e3 ff fc 3b c0 78 5a bd
       -0.045782734 -0.038677704 0.0077209338 -0.053337812
000170 aa 5b 13 bd 65 eb 7f bd 55 c3 b8 bb ab 8c 61 3d
       -0.03597609 -0.06248035 -0.00563852 0.055065792
000180 7b c3 16 3d 18 7b 17 bd 45 38 2f bd 57 bf 1e bd
       0.03680752 -0.036982626 -0.042778272 -0.038756695
000190 46 25 d8 3c fe 52 62 bd 16 04 58 3d 18 bb 37 3d
       0.02638496 -0.05525493 0.05273827 0.04485616
0001a0 35 3b 30 bc 45 84 03 bc 37 ed e5 3c 6a 35 8d bd
       -0.010756304 -0.008027141 0.028067214 -0.068949535
0001b0 43 59 5c bd de 5c 3b 3d 5a 9e 09 bd d7 3c 14 3d
       -0.053796064 0.045742862 -0.03359828 0.036190834
0001c0 b1 98 4f 3d c9 b0 56 3d 8b 1e 34 3d f9 52 97 3d
       0.050682727 0.05241469 0.04397444 0.07388873
0001d0 5f c2 82 bd e1 5d 6c 3d c2 68 12 bd 38 2a 0e bd
       -0.063847296 0.057706717 -0.035744436 -0.03470823
0001e0 6e 42 dd bd ab b6 52 3d a9 91 57 bd e6 12 80 bd
       -0.10803686 0.051443737 -0.052629147 -0.062536046
0001f0 65 8b b1 bd bf 6e df bc f2 56 4c 3c 01 7d 9e 3b
       -0.086691655 -0.027274488 0.012471901 0.004836679
000200 73 c5 39 3c 1a f0 00 bc f3 e9 51 bc 19 74 84 bc
       0.0113385795 -0.007869745 -0.0128121255 -0.01616864
000210 5e 8f 7c bd a9 8f e4 3c e3 2d 8c ba c8 7d fa bc
       -0.061660163 0.027900534 -0.0010694828 -0.030577555
000220 91 54 53 bd a0 d9 6d 3d 3a 35 c0 3c 0b c0 59 bd
       -0.05159432 0.05806887 0.02346288 -0.053161662
000230 78 b8 14 3d c4 e0 24 bc f2 26 41 bd 55 53 4e 3d
       0.036308736 -0.010063354 -0.04715628 0.05037244
000240 16 6e dc 3c cc c6 48 3c 55 9c 6b bd fe ef 13 3d
       0.026907962 0.012254428 -0.057522137 0.036117546
000250 47 c8 42 bd 04 35 72 bc fd 1b 05 3d 1c 22 87 bd
       -0.04755428 -0.014783148 0.032497395 -0.06598303
000260 b7 0e c5 3b b2 6f 00 3d ec 65 3c bc 3d cf ae bd
       0.006013717 0.03135652 -0.011498909 -0.08535621
000270 75 d9 6b 3c 69 a7 c4 3c 33 ce 54 bc ac 15 7a bd
       0.0143951075 0.024005609 -0.012988615 -0.061055824
000280 7b a5 3f 3d 13 87 02 3d 75 22 10 3d e5 a4 87 bd
       0.046788674 0.031867098 0.03518911 -0.06623248
000290 80 32 07 3d ac 05 a0 3c 88 6c 15 3c dd 56 43 3d
       0.033007145 0.019533955 0.009120114 0.04769026
0002a0 d8 77 31 3d dc 7f 77 3c cf ae 7a 3c 6f ea e0 3c
       0.043327183 0.015106168 0.015300467 0.027455537
0002b0 d2 d2 54 bd c4 c8 70 3c 4a c1 cc 3c 69 da fb 3c
       -0.051958866 0.014696304 0.024994511 0.030743795
0002c0 27 8e 4b bd 81 1e e3 3c bb d2 a5 bd ec d7 eb 3c
       -0.049696114 0.027724506 -0.08096834 0.028789483
0002d0 08 3e 28 3d 49 b3 f4 bb 51 4a 6a bd ec c9 10 bd
       0.041074783 -0.0074676615 -0.05719978 -0.035348818
0002e0 33 c2 07 3d 7a 46 d2 bc cd 94 7d bd 7c c0 ce 3c
       0.033144187 -0.025668371 -0.061909486 0.025238268
0002f0 c6 db c7 3c 7a e1 29 3d dc 22 91 bd 9b 81 e2 3c
       0.024396788 0.041474797 -0.07086727 0.027649691
000300 54 ae 8c bd 09 ed 14 3d 57 53 06 3d 0f df 88 3c
       -0.06869188 0.036358867 0.032794323 0.016707925
000310 58 54 a4 3c 36 bc 5a 3c 24 1e be 3c 8d 34 d7 bc
       0.02005975 0.013350537 0.023207732 -0.026270175
000320 e1 45 a3 3c 71 e1 03 3d 00 08 e0 3c 67 e2 1e 3d
       0.019930782 0.03219742 0.027347565 0.038790133
000330 da 53 da 3c f4 b7 f7 3c a3 ab 83 3d a8 a5 ac 3c
       0.026651312 0.030239083 0.064292215 0.021075085
000340 64 06 90 3b 1f ac 5a 3c 6e 4c 96 bc 54 f0 25 3d
       0.004395293 0.013346701 -0.018346991 0.040512398
000350 ba 9a a6 3b a2 e5 ed 3b dc 7b ef 3b 36 f1 88 3c
       0.005084363 0.0072600404 0.0073084664 0.01671658
000360 a0 29 30 bd 47 dc 85 3b 5b e1 9b bd f1 e6 af 3c
       -0.043008447 0.004085097 -0.076113425 0.021472426
000370 a9 0a c1 3b 44 1b c7 bb fb ad 91 bd 1e bf e9 3b
       0.0058911634 -0.0060762484 -0.07113262 0.0071333786
000380 73 f9 4d 3d 72 61 fd 3c 6f 7c 4d bd a0 ce 62 bd
       0.05028672 0.030930255 -0.050167497 -0.055372834
000390 32 94 2c 3d 7d 00 29 3d c2 cf 8f 3c 7b ec d5 bc
       0.042133518 0.04126023 0.017555121 -0.02611374
0003a0 a8 b1 d7 3c f0 31 04 be 03 6e 5c bd 0b 0a c8 3c
       0.02632983 -0.12909675 -0.053815853 0.024418851
0003b0 fa ce f3 bc 03 a1 ec 3c 49 97 19 3d b8 51 29 3d
       -0.02976178 0.02888537 0.037497792 0.0413377
0003c0 04 d2 17 3a ca 72 9e 3c 09 63 48 3c 6b 5d 17 3c
       0.00057914876 0.019341845 0.012230643 0.009238581
0003d0 01 0b 20 bd b4 47 f9 ba a4 49 30 bd 42 87 91 bd
       -0.039072994 -0.0019018562 -0.04303898 -0.071058765
0003e0 cb 85 5f bd ff 98 a7 b9 54 38 2d bd a6 e2 59 3c
       -0.054570954 -0.00031966713 -0.042290047 0.013298666
0003f0 e8 d9 33 3c a0 7a 8f bd 7e 7e 1f 3d e0 87 19 3d
       0.010977246 -0.07005811 0.03893899 0.037483096

fc4.bias f4 [2]
000000 02 df 56 3c a7 be 55 3b
       0.013114693 0.0032614858
