model/checkpoint.pth (torch_old, 147058 bytes, 8 tensors)

fc1.weight f4 [128, 24]
-0.004614944 -0.036879115 0.040528614 0.056076646 -0.0298271 0.11244914 -0.100343585 0.13208105
-0.008006852 0.11019311 -0.011573042 -0.005344133 -0.072950706 0.08114405 -0.016572535 0.0808466
-0.05686889 -0.014363168 0.011233279 0.06443855 -0.013339347 0.0988605 0.05765236 -0.02209507
-0.09991339 -0.12057309 0.039796434 0.049433615 -0.009648885 0.008049327 0.034294456 -0.072612084
0.06393775 0.06961522 -0.060216118 0.022346033 -0.0646672 0.05787843 -0.026765056 -0.021676088
-0.021022538 0.028965205 -0.033388622 0.15064272 -0.047840554 -0.07143886 0.08790396 0.022209357
0.09851179 0.078692496 0.13032211 -0.06564913 0.0047847484 0.025848325 0.1240658 -0.03615227
0.18978097 0.09460595 0.046785325 0.083153576 0.010997832 -0.081702515 0.02599619 0.021525797
0.08624988 0.07395204 0.054765206 0.0396803 0.02607566 -0.13719033 0.02103141 -0.10527317
-0.07599407 0.0114923045 0.004358241 -0.06849982 -0.0676451 0.0030790423 -0.012512476 -0.05729842
0.05495621 -0.14216705 0.0804262 -0.021687744 -0.15100923 0.09812835 0.064305216 -0.086249776
0.02060192 -0.072987445 0.029575543 0.004735613 -0.106367566 0.043252543 0.02974539 -0.020932
-0.04061594 0.004912523 -0.07156229 -0.11600151 -0.052438434 -0.051614046 0.072608486 -0.13883194
-0.07986024 -0.14440116 0.08061669 -0.0331699 -0.027968518 -0.042631466 -0.011293581 -0.124566145
-0.06740532 -0.104833804 -0.08809464 0.016527701 -0.04411211 -0.06652004 -0.083228216 -0.016168509
-0.074663386 -0.004306852 0.038015287 0.07624044 0.008936209 -0.078987405 -0.04075015 0.14966181
-0.053660553 0.050679095 -0.089721665 0.14507608 0.118999 0.02160816 -0.015277183 0.10608309
-0.033133194 0.09723371 -0.11761356 0.086900905 -0.041787475 0.034615807 -0.08738055 0.029169897
-0.05500065 -0.1261566 -0.04684306 -0.1449864 -0.12859614 -0.06568758 0.030966299 -0.04529988
0.04893364 -0.05180654 -0.10459513 -0.10877041 -0.023111638 -0.12023398 -0.046047334 -0.10261168
-0.05620428 -0.0660009 -0.046265543 0.07007484 0.09636886 -0.06158177 0.0030711542 -0.051274914
-0.01773092 -0.07187801 -0.0356307 0.08241704 -0.11492635 0.13458191 0.08780324 0.14829972
-0.06357679 0.051969763 0.0647158 0.0676866 -0.013797494 0.07657973 -0.0723586 -0.05800656
0.0116999615 -0.068373226 -0.087219544 -0.03844722 0.07462679 -0.042942327 0.029733805 0.07231581
0.0830492 -0.04082936 -0.039938815 0.022345964 -0.04598338 0.14340048 -0.04943142 0.08512761
0.05044571 0.011335468 -0.091729656 0.009077857 -0.047277007 0.13242367 0.01247691 -0.027225694
0.06460267 -0.08491823 -0.016870683 -0.014299763 -0.056515414 0.07148464 -0.041497674 -0.095604226
-0.0934308 -0.088232554 0.08832813 -0.058819715 -0.09881438 0.098425135 0.076505385 -0.011969278
-0.02839211 0.040577188 0.08166348 0.012196446 0.035299398 -0.056279838 -0.08278131 -0.09433719
-0.030968642 -0.037981972 0.055797555 -0.11261117 -0.041860744 -0.11195944 -0.08764472 0.024302384
-0.09539806 -0.06533021 -0.044239767 -0.11149658 -0.05899993 0.0004094198 0.056048065 -0.10283984
-0.06908337 -0.014479834 -0.052074604 0.03815784 -0.07675115 0.10795764 0.03599383 -0.10134915
00000000: f538 97bb 8e0e 17bd 5501 263d a0b0 653d
00000010: f657 f4bc bc4b e63d f080 cdbd 4140 073e
00000020: 2c2f 03bc edac e13d db9c 3dbc d61d afbb
00000030: 2e67 95bd da2e a63d 20c3 87bc e792 a53d
00000040: 5aef 68bd 7e53 6bbc c90b 383c 5cf8 833d
00000050: 478d 5abc 6077 ca3d e224 6c3d b800 b5bc
00000060: 649f ccbd 06ef f6bd 9601 233d e77a 4a3d
00000070: 5b16 1ebc 53e1 033c 5878 0c3d a5b5 94bd
00000080: ccf1 823d 6d92 8e3d 2da5 76bd 070f b73c
00000090: 3d70 84bd ef11 6d3d 6442 dbbc 0d92 b1bc
000000a0: 7537 acbc 7048 ed3c 82c2 08bd 1642 1a3e
000000b0: 75f4 43bd 894e 92bd fe06 b43d 66f0 b53c
000000c0: 8dc0 c93d 8829 a13d 2973 053e 0d73 86bd
000000d0: 61c9 9c3b debf d33c 3616 fe3d 6714 14bd
000000e0: f155 423e c4c0 c13d f8a1 3f3d 6c4c aa3d
000000f0: 4030 343c a653 a7bd f6f5 d43c de56 b03c
00000100: c7a3 b03d 2b74 973d 7b51 603d cf87 223d
00000110: 9f9c d53c 9f7b 0cbe 104a ac3c 7699 d7bd
00000120: c7a2 9bbd 384a 3c3c 93cf 8e3b a249 8cbd
00000130: 8489 8abd c2c9 493b 2101 4dbc c0b1 6abd
00000140: c319 613d 3d94 11be 7eb6 a43d 7faa b1bc
00000150: 2aa2 1abe 84f7 c83d 74b2 833d b9a3 b0bd
00000160: 5cc5 a83c 717a 95bd 6948 f23c 332d 9b3b
00000170: 3dd7 d9bd 9429 313d 9bac f33c 9679 abbc
00000180: e65c 26bd 3bf9 a03b 408f 92bd 3392 edbd
00000190: afc9 56bd 4069 53bd c2b3 943d f629 0ebe
000001a0: c48d a3bd e6dd 13be 5d1a a53d 29dd 07bd
000001b0: 3c1e e5bc 559e 2ebd b608 39bc 891c ffbd
000001c0: cd0b 8abd 1bb3 d6bd f66a b4bd 1a65 873c
000001d0: e6ae 34bd a93b 88bd 8e73 aabd d273 84bc
000001e0: 1ee9 98bd 7e20 8dbb ebb5 1b3d f323 9c3d
000001f0: 2d69 123c 26c4 a1bd a1e9 26bd f240 193e
00000200: 2bcb 5bbd e294 4f3d febf b7bd d38e 143e
00000210: bfb5 f33d 9903 b13c 264d 7abc 1742 d93d
00000220: acb6 07bd 7822 c73d 61df f0bd 1af9 b13d
00000230: 5829 2bbd 4ec9 0d3d 93f4 b2bd b5f5 ee3c
00000240: 5d48 61bd 322f 01be 82de 3fbd 5177 14be
00000250: b5ae 03be 3687 86bd 09ad fd3c 5e8c 39bd
00000260: a46e 483d 1833 54bd f935 d6bd 05c3 debd
00000270: 9e54 bdbc 3c3d f6bd 219c 3cbd 1326 d2bd
00000280: 7636 66bd 7b2b 87bd f080 3dbd 6683 8f3d
00000290: 095d c53d 2b3d 7cbd 6b45 493b a505 52bd
000002a0: 6f40 91bc c734 93bd 7ff1 11bd 44ca a83d
000002b0: 825e ebbd d7cf 093e 2fd2 b33d e2db 173e
000002c0: 8c34 82bd 3fde 543d b889 843d 469f 8a3d
000002d0: e20e 62bc d5d5 9c3d bf30 94bd 4998 6dbd
000002e0: 32b1 3f3c 4307 8cbd 29a0 b2bd d57a 1dbd
000002f0: eed5 983d 4be4 2fbd 4f94 f33c 501a 943d
00000300: b315 aa3d b03c 27bd e296 23bd e20e b73c
00000310: 1259 3cbd 93d7 123e 9a78 4abd 6257 ae3d
00000320: 29a0 4e3d 66b8 393c c2dc bbbd 4bbb 143c
00000330: 89a5 41bd 129a 073e f46b 4c3c 6b08 dfbc
00000340: 684e 843d 9ce9 adbd 6334 8abc 8e49 6abc
00000350: b57c 67bd 8a66 923d 77f9 29bd 26cc c3bd
00000360: a658 bfbd 45b3 b4bd 61e5 b43d f1ec 70bd
00000370: 325f cabd 1e93 c93d dbae 9c3d ca1a 44bc
00000380: 9296 e8bc 4434 263d 2f3f a73d 9ad3 473c
00000390: 1a96 103d b085 66bd 3f89 a9bd db33 c1bd
000003a0: f3b1 fdbc fc92 1bbd fa8b 643d afa0 e6bd
000003b0: 2c76 2bbd fe4a e5bd 137f b3bd cb15 c73c
000003c0: 0f60 c3bd d8cb 85bd c234 35bd 5258 e4bd
000003d0: e9a9 71bd 65a7 d639 a892 653d b29d d2bd
000003e0: 957b 8dbd d33c 6dbc 2e4c 55bd 654b 1c3d
000003f0: b52f 9dbd e518 dd3d 446e 133d 2590 cfbd

fc1.bias f4 [128]
0.20101395 0.15813215 -0.24762428 -0.079597004 0.1526451 -0.08455481 0.07600243 -0.034124356
0.041032743 0.11627292 0.10328122 0.23086627 -0.0080921 0.1192757 0.06791595 -0.069650725
-0.1767234 0.21362375 -0.031393126 0.1740349 0.14788106 0.0032196753 -0.08563076 0.06401378
-0.08901775 0.06874611 -0.11259324 0.15177687 -0.16812259 -0.040555988 0.058843873 -0.037704136
0.2003748 -0.011416702 -0.12527154 0.14499001 0.092909224 0.15203573 -0.09957943 -0.08234165
-0.04106885 0.021779394 0.08104135 -0.13335353 -0.092648715 -0.015238279 0.20036207 -0.068713054
0.23874249 -0.081797026 -0.03204232 -0.124351166 0.17316554 -0.13637303 0.12782316 -0.052770022
0.26139706 0.051207904 -0.17299756 0.048967782 0.065350465 -0.2013815 0.050194904 0.22399856
0.08320102 0.016327433 -0.043924287 0.08415511 -0.09231292 0.21696526 0.2610031 0.1247084
-0.028812675 -0.17141552 -0.10371658 0.21200281 -0.17322804 -0.14788787 0.01008645 0.074616
-0.18426013 -0.10871468 0.058510784 -0.09427866 0.17141432 0.05300669 -0.11225827 -0.15210447
0.1809685 0.01944893 -0.09484054 0.09076176 0.02830732 0.13709167 0.03298641 -0.08157404
-0.13873932 0.12394585 -0.06980127 -0.023191443 0.055198193 -0.095577985 0.16074984 -0.10935814
0.06364821 0.02562879 0.12011526 -0.18921772 0.026781209 0.12584838 -0.15305512 0.094090015
0.0120190205 0.18565711 -0.009325283 0.0078123417 -0.06379466 -0.03732861 0.049636964 -0.18022321
0.15393977 0.18476027 0.085544504 0.1600917 -0.050838176 0.08062058 -0.009727007 -0.1689458
00000000: 9ad6 4d3e 65ed 213e 3891 7dbe c103 a3bd
00000010: ff4e 1c3e 122b adbd 29a7 9b3d fbc5 0bbd
00000020: f311 283d 7f20 ee3d 1b85 d33d 3568 6c3e
00000030: ba94 04bc d146 f43d 8517 8b3d 0aa5 8ebd
00000040: fbf6 34be 2fc0 5a3e 1496 00bd 3436 323e
00000050: 226e 173e 3001 533b 2e5f afbd a819 833d
00000060: f04e b6bd c3ca 8c3d 4997 e6bd 656b 1b3e
00000070: 5428 2cbe 091e 26bd 4606 713d a76f 1abd
00000080: 0d2f 4d3e 1e0d 3bbc 2f47 00be 4378 143e
00000090: 3147 be3d 41af 1b3e 4df0 cbbd bda2 a8bd
000000a0: cf37 28bd b36a b23c 02f9 a53d d48d 08be
000000b0: 9cbe bdbd f9a9 79bc b72b 4d3e 6eb9 8cbd
000000c0: e978 743e 3385 a7bd cf3e 03bd d3ab febd
000000d0: 4f52 313e 5fa5 0bbe 13e4 023e 6125 58bd
000000e0: d6d5 853e 61bf 513d 4626 31be 7192 483d
000000f0: 77d6 853d f436 4ebe 2c99 4d3d e15f 653e
00000100: 4c65 aa3d 1cc1 853c f4e9 33bd 8459 ac3d
00000110: 8e0e bdbd 242c 5e3e 33a2 853e 1e67 ff3d
00000120: 8f08 ecbc 8d87 2fbe 5c69 d4bd 4417 593e
00000130: b162 31be eb6f 17be a341 253c 46d0 983d
00000140: b0ae 3cbe cda5 debd 01a9 6f3d 2c15 c1bd
00000150: 3c87 2f3e 8b1d 593d aae7 e5bd 46c1 1bbe
00000160: ce4f 393e 5d53 9f3c c23b c2bd 4de1 b93d
00000170: c1e4 e73c c261 0c3e c21c 073d 4a10 a7bd
00000180: ae11 0ebe 52d7 fd3d f8f3 8ebd fbfb bdbc
00000190: 8017 623d 64be c3bd 9b9b 243e 29f7 dfbd
000001a0: fe59 823d 78f3 d13c fdfe f53d 4ac2 41be
000001b0: 4464 db3c 66de 003e 7bba 1cbe 44b2 c03d
000001c0: 6deb 443c e61c 3e3e 12c9 18bc acfe ff3b
000001d0: c6a6 82bd e2e5 18bd 2150 4b3d 6f8c 38be
000001e0: 63a2 1d3e cc31 3d3e f531 af3d 14ef 233e
000001f0: b13b 50bd 671c a53d 065e 1fbc 2100 2dbe

fc2.weight f4 [128, 128]
0.087100245 0.013095322 0.03768313 -0.06274686 -0.10577075 -0.057725992 0.07228273 0.038544703
-0.12154241 0.06815249 -0.011505694 -0.15909447 0.020368839 -0.016110782 0.09792358 -0.014051741
-0.14735866 -0.025423225 0.01681211 0.064750195 0.012144213 -0.037610356 -0.059576277 -0.0052102413
-0.026345318 0.052765206 -0.046591684 0.08963256 -0.11598933 -0.053288613 -0.06115233 -0.0026041542
-0.037249207 -0.038244072 0.059774734 0.031619903 -0.0401752 -0.012009071 -0.0067048655 0.038311806
-0.023236 -0.1510043 -0.09842516 0.019753758 0.053182315 0.085461386 -0.010903646 -0.0257297
-0.057971884 0.03734236 0.093778685 0.025417145 0.014605565 0.034083746 -0.07122126 -0.071631
0.047980413 0.056235533 -0.042146336 -0.13660397 0.011088541 0.015261627 -0.04508027 -0.034912076
0.049698725 0.060664844 -0.13240822 -0.039596524 -0.0035230273 -0.053915206 -0.05033415 0.06544035
0.010515132 0.11285357 0.043737996 -0.1174185 -0.061437875 0.044051997 0.07764279 -0.07353802
-0.10695705 0.016501093 0.0052342205 -0.09388127 0.03471685 0.02232535 -0.107607804 0.08424953
0.027147692 0.09018731 -0.02970939 0.021319328 0.013662314 0.054295994 0.11672085 0.0721821
-0.024657018 -0.12710807 0.082942076 0.08136171 -0.004591647 -0.015337767 -0.10845121 -0.10116393
-0.04830702 -0.016520089 0.028157335 -0.076071315 0.09788575 0.08941457 0.04461086 0.036755614
0.06404981 0.031307712 -0.003383875 -0.057086598 0.00097631576 0.05481013 0.055301875 0.06780143
0.04560017 0.078668624 -0.03362962 -0.088686444 0.03087962 0.0273768 0.037187852 -0.14599413
-0.05048653 0.11523206 -0.041315548 -0.12250502 -0.10820059 0.027026588 0.052317567 -0.042451777
0.09215558 -0.10904672 0.094990216 0.1150198 0.005990628 0.04056851 0.115057416 -0.015604524
-0.06437933 0.06526628 0.0058754273 -0.010587014 0.07705135 -0.09002089 0.12642536 0.07022492
0.016886858 0.09901677 0.0863636 -0.050066467 0.018174773 0.10980746 0.042782877 -0.057387006
-0.005523158 -0.00052053516 0.057506684 0.005359087 0.0314447 -0.02954451 0.05283745 0.06561035
-0.04435883 -0.046015956 -0.07038098 0.067016646 0.026934693 0.022628931 -0.023585405 0.0036637292
-0.0404 0.11391454 -0.0975252 -0.051910773 -0.057387535 0.105190575 -0.068014786 -0.037056163
0.02422752 0.027856845 -0.053745717 0.09838486 -0.04958689 0.046762265 0.13034908 0.002601479
-0.06517108 0.02913161 0.08799584 0.09315636 -0.040968034 0.0010916056 0.10320016 0.08320448
0.029177846 -0.04669627 0.04273169 -0.043403514 0.0025279475 0.0029215643 0.03736989 -0.0013557788
0.05029596 -0.05171096 -0.05444507 -0.00017274791 -0.03107509 0.048366312 -0.013878023 -0.062399384
0.010223915 0.060386814 -0.029876435 0.008917721 -0.04965863 0.0837043 -0.048677333 0.10136191
-0.13831365 -0.013025157 0.025219355 -0.030617906 -0.006381719 0.10885923 -0.03998937 -0.071158804
0.07073409 -0.047613375 -0.09745613 0.1116436 0.0004407745 -0.043846585 0.056949116 0.06627978
-0.029837184 0.047219396 0.010480854 0.08042535 0.033515997 0.11974708 -0.06191993 0.104763985
0.028544754 0.051656473 -0.024687428 0.027120829 0.099132344 -0.028682036 -0.029493421 0.06895542
00000000: 9d61 b23d c38d 563c a059 1a3d 6d81 80bd
00000010: 569e d8bd 1772 6cbd f808 943d 0de1 1d3d
00000020: 3aeb f8bd 8893 8b3d 6182 3cbc a9e9 22be
00000030: 8ddc a63c c2fa 83bc 288c c83d 4639 66bc
00000040: 30e5 16be 5e44 d0bc 8db9 893c c09b 843d
00000050: 85f8 463c 510d 1abd 4106 74bd acba aabb
00000060: 23d2 d7bc 5420 583d ecd6 3ebd 4791 b73d
00000070: d08b edbd 2945 5abd de7a 7abd 75aa 2abb
00000080: a092 18bd d1a5 1cbd 5ad6 743d df83 013d
00000090: c08e 24bd b2c1 44bc 7db4 dbbb d7ec 1c3d
000000a0: 6d59 bebc dfa0 1abe 2193 c9bd a2d2 a13c
000000b0: b3d5 593d 6106 af3d 35a5 32bc 18c7 d2bc
000000c0: ed73 6dbd 4df4 183d 0a0f c03d 9e37 d03c
000000d0: 2e4c 6f3c 669b 0b3d 74dc 91bd 46b3 92bd
000000e0: 1c87 443d 3b57 663d a3a1 2cbd e9e1 0bbe
000000f0: b6ac 353c e70b 7a3c 17a6 38bd f7ff 0ebd
00000100: e490 4b3d b37b 783d 0596 07be f72f 22bd
00000110: 97e2 66bb 31d6 5cbd 2f2b 4ebd 9705 863d
00000120: a947 2c3c c61f e73d 9d26 333d 1c79 f0bd
00000130: 48a6 7bbd de6f 343d 2f03 9f3d 1a9b 96bd
00000140: 4c0c dbbd 4d2d 873c d383 ab3b d344 c0bd
00000150: 4133 0e3d a7e3 b63c 7b61 dcbd 058b ac3d
00000160: d664 de3c 20b4 b83d 1b61 f3bc dfa5 ae3c
00000170: e6d7 5f3c 7a65 5e3d 570b ef3d 35d4 933d
00000180: 84fd c9bc 9e28 02be 89dd a93d f8a0 a63d
00000190: 8775 96bb 424b 7bbc ab1b debd 092f cfbd
000001a0: 95dd 45bd 2355 87bc 36aa e63c 47cb 9bbd
000001b0: 5378 c83d fc1e b73d e1b9 363d 0e8d 163d
000001c0: 8c2c 833d 843c 003d 00c4 5dbb a3d3 69bd
000001d0: 71ef 7f3a 9680 603d 3884 623d 7adb 8a3d
000001e0: 3ec7 3a3d 041d a13d 36bf 09bd 3da1 b5bd
000001f0: 42f7 fc3c 5045 e03c 4a52 183d 7c7f 15be
00000200: f7ca 4ebd c9fe eb3d 7e3a 29bd e9e3 fabd
00000210: 4598 ddbd dd66 dd3c f24a 563d eae1 2dbd
00000220: 11bc bc3d e353 dfbd 3b8a c23d 808f eb3d
00000230: 084d c43b 2a2b 263d 39a3 eb3d 1eaa 7fbc
00000240: 4fd9 83bd 54aa 853d a886 c03b 2875 2dbc
00000250: 19cd 9d3d df5c b8bd a675 013e 15d2 8f3d
00000260: 4f56 8a3c 4ec9 ca3d 66df b03d 7f12 4dbd
00000270: 43e3 943c bce2 e03d 193d 2f3d a30e 6bbd
00000280: 9bfb b4bb 8674 08ba 218c 6b3d 489b af3b
00000290: 28cc 003d 5407 f2bc 156c 583d b85e 863d
000002a0: 9bb1 35bd 3a7b 3cbd e723 90bd 0640 893d
000002b0: 25a6 dc3c 4f60 b93c 2e36 c1bc 2d1b 703b
000002c0: 787a 25bd 074c e93d 4bbb c7bd 64a0 54bd
000002d0: 310f 6bbd 286e d73d 564b 8bbd 34c8 17bd
000002e0: cb78 c63c 0a34 e43c 7824 5cbd 007e c93d
000002f0: 9f1b 4bbd ca89 3f3d 3b7a 053e 937d 2a3b
00000300: 6a78 85bd 6aa5 ee3c 2a37 b43d c3c8 be3d
00000310: 19ce 27bd 3514 8f3a 9b5a d33d 1c67 aa3d
00000320: 6106 ef3c 9744 3fbd 6d07 2f3d e2c7 31bd
00000330: ecab 253b b777 3f3b 2b11 193d 63b4 b1ba
00000340: 2303 4e3d dfce 53bd cb01 5fbd aa23 35b9
00000350: 3091 febc c11b 463d a660 63bc 7f96 7fbd
00000360: 3582 273c 2a58 773d 6dbf f4bc a21b 123c
00000370: d966 4bbd 296d ab3d e261 47bd d596 cf3d
00000380: 18a2 0dbe 7867 55bc d298 ce3c 67d2 fabc
00000390: bd1d d1bb 97f1 de3d e5cb 23bd b5bb 91bd
000003a0: 09dd 903d 3e06 43bd 1497 c7bd 66a5 e43d
000003b0: c017 e739 7a98 33bd 7a43 693d b1bd 873d
000003c0: 1c6d f4bc 2069 413d e3b7 2b3c 0cb6 a43d
000003d0: 1248 093d f53d f53d c19f 7dbd 808e d63d
000003e0: b0d6 e93c bd95 533d 4a3d cabc 802c de3c
000003f0: e605 cb3d 97f6 eabc 309c f1bc 8038 8d3d

fc2.bias f4 [128]
0.0695819 0.06222392 0.025118863 -0.07185372 0.062147286 -0.013446406 0.068143085 -0.04840649
0.039548054 0.0040760306 0.07996927 -0.02389432 0.0335788 -0.0559262 0.03399348 -0.09156107
-0.1031459 -0.06882936 -0.042586543 -0.021704145 0.020280639 0.025913859 -0.012727899 0.04548839
-0.08388077 0.091317624 -0.018226305 -0.013148961 0.020666596 -0.0011280146 0.045924794 -0.00061188004
0.05901013 -0.0045671165 -0.019120371 0.018408712 0.054263573 0.07043651 0.022865737 0.06642641
-0.028140686 0.015771128 -0.061094824 -0.045947656 -0.051361687 -0.051161718 0.04736548 -0.03109206
-0.06898851 -0.056171976 -0.06944434 0.04165907 -0.022918532 0.01987232 0.057345882 0.08109132
-0.034892004 0.081107244 0.064827465 0.0033836414 -0.002827065 0.056649953 0.01946316 0.047389846
-0.072428115 -0.014405942 0.00369925 -0.05977816 -0.046794076 0.025672436 -0.080403045 0.08375659
0.10564231 0.014220438 0.012714393 0.017766753 -0.010194159 0.091941744 -0.040241074 -0.054593436
-0.04072094 0.00494933 -0.043470375 -0.014271497 -0.030381666 0.0884315 -0.036641195 0.029103711
0.022093857 0.029217493 -0.055167615 0.05323866 0.028242161 -0.019722082 -0.001663073 0.054782018
0.024659118 0.0069319573 0.04380561 0.061453003 0.061571866 -0.027991593 0.03880301 -0.025222283
0.039853692 -0.02778931 0.032607194 0.05645076 0.020594472 -0.05059663 -0.03455006 -0.022271898
-0.0489941 -0.063001074 -0.06232064 -0.028933328 -0.04419979 0.060479004 0.063580014 -0.10673222
0.016334094 0.005288231 0.040053263 0.036883406 -0.03120098 0.09786969 0.08007631 -0.07254891
00000000: f580 8e3d 82de 7e3d 13c6 cd3c 0b28 93bd
00000010: 278e 7e3d 514e 5cbc 9a8e 8b3d e245 46bd
00000020: 24fd 213d 3990 853b eec6 a33d 05be c3bc
00000030: ec89 093d df12 65bd bf3c 0b3d 5f84 bbbd
00000040: 283e d3bd 68f6 8cbd 3a6f 2ebd e4cc b1bc
00000050: 9523 a63c 4d49 d43c ad88 50bc 0952 3a3d
00000060: aec9 abbd bc04 bb3d 554f 95bc bd6e 57bc
00000070: fe4c a93c e4d9 93ba a31b 3c3d 9366 20ba
00000080: 9bb4 713d c0a7 95bb 53a2 9cbc decd 963c
00000090: 7b43 5e3d 0441 903d ed50 bb3c 920a 883d
000000a0: 4c87 e6bc 7432 813c 913e 7abd 9c33 3cbd
000000b0: a260 52bd f38e 51bd 4e02 423d c7b4 febc
000000c0: d949 8dbd 9614 66bd d638 8ebd b3a2 2a3d
000000d0: a5bf bbbc 47cb a23c 84e3 6a3d 3513 a63d
000000e0: ebea 0ebd 8e1b a63d 43c4 843d 15c0 5d3b
000000f0: 4846 39bb c809 683d 3471 9f3c db1b 423d
00000100: 3155 94bd e606 6cbc 1e6f 723b f2d9 74bd
00000110: 25ab 3fbd 004f d23c 5aaa a4bd 9388 ab3d
00000120: ff5a d83d d7fc 683c 0850 503c 958b 913c
00000130: 6705 27bc f44b bc3d d3d3 24bd 5e9d 5fbd
00000140: 00cb 26bd fd2d a23b fe0d 32bd ffd2 69bc
00000150: f9e2 f8bc 931b b53d 1415 16bd e86a ee3c
00000160: 2dfe b43c 8659 ef3c 70f7 61bd c810 5a3d
00000170: 1b5c e73c 3490 a1bc 78fb d9ba 1c63 603d
00000180: eb01 ca3c 7925 e33b 836d 333d 25b6 7b3d
00000190: c832 7c3d a04e e5bc e8ef 1e3d f69e cebc
000001a0: a03d 233d 68a6 e3bc 1f8f 053d ea38 673d
000001b0: bdb5 a83c 693e 4fbd 5d84 0dbd 8e73 b6bc
000001c0: 0aae 48bd b506 81bd ed43 7fbd 9605 edbc
000001d0: d70a 35bd d5b8 773d 3d36 823d 6c96 dabd
000001e0: 14cf 853c e648 ad3b e40e 243d 0e13 173d
000001f0: 3399 ffbc e76f c83d 0cff a33d 8694 94bd

fc3.weight f4 [128, 128]
0.014398296 -0.04164206 0.081474945 0.215349 -0.08532898 0.103636555 0.15923858 0.08994089
-0.0169543 0.02624123 0.064408705 0.17912011 0.069728345 -0.07198903 0.04007152 -0.12754625
0.07772551 0.07100817 -0.03447266 0.041430015 0.08909832 -0.06644237 -0.04000314 0.11560566
0.12311261 -0.004975728 0.118771285 -0.0054269405 5.4047654e-05 0.030696817 -0.11074527 -0.096895404
-0.018214922 0.0302547 0.106361546 0.026222847 0.09649893 0.010470838 0.060918093 -0.058726624
0.015312845 0.0843578 -0.08394747 0.088391244 0.008737546 0.036594953 -0.041295364 0.04916401
-0.11200947 0.044005062 0.12085689 0.027597597 -0.034338113 0.028962327 0.00800007 -0.004032205
0.07171042 0.044517577 0.08051978 0.046160463 -0.086658806 -0.1411548 0.01777928 -0.03516374
0.056542434 -0.034956273 0.15912342 -0.0073338733 -0.025076808 0.046112284 0.09395293 0.019287316
0.025564888 0.06839415 0.1397695 0.09875004 -0.032492142 -0.04814308 -0.007553113 0.045344707
-0.08564822 0.019387785 -0.09128923 -0.05887422 0.04348256 -0.062257968 0.07853458 -0.012716045
-0.095985524 0.067331366 -0.01357266 0.009248701 -0.099255025 -0.074837126 0.005299517 -0.06449708
0.039550316 -0.06285294 -0.09462698 0.08925419 -0.009904125 0.11857715 0.019828307 -0.09438104
0.004505332 0.19886589 0.032867596 -0.100946076 -0.04071846 0.043546062 0.062312447 -0.13284843
-0.06043972 0.0046501467 0.03948478 0.0028539074 -0.03191517 -0.0018249262 0.013901219 -0.1199929
0.0016301183 0.09257616 0.06288392 0.02356789 0.025548609 0.05156444 0.12636499 0.09622588
-0.063031204 0.0026575404 -0.051417034 0.18955086 -0.06911721 0.032439757 0.061401762 0.100095674
0.09758491 0.005229051 -0.0031835402 0.11198666 0.055094045 -0.050531786 -0.070835926 -0.049032822
0.09763146 0.09768999 0.067778856 -0.06964902 0.047909465 0.01908579 0.022959916 -0.0022608528
0.066911474 0.032835044 -0.0067381957 0.04168584 0.052516267 -0.08071377 -0.02162446 -0.109713726
0.021904636 -0.032595534 0.041507944 -0.012508692 0.103294924 -0.09605817 0.0077937883 -0.12699737
0.11329111 0.041274294 -0.027067034 0.11029031 -0.019953283 0.1143549 0.012871571 0.058879234
-0.043881137 -0.045808334 0.1351771 -0.066367716 -0.03654556 0.075554624 0.0032010882 -0.06361181
0.046204533 0.09821623 0.017162146 0.025358869 0.005788376 -0.07794684 0.006747014 0.028588682
0.06424815 0.096365795 0.004364377 -0.0100085335 0.09372582 0.09672464 0.039898776 0.052689236
0.08742983 0.039609503 -0.014634149 0.02829567 -0.0459449 -0.052809965 0.024469001 -0.021835275
-0.10532908 0.02111058 -0.07702737 -0.17628045 0.11143305 0.054593343 0.08319597 0.052224327
-0.03442509 -0.042171977 -0.004263078 0.06729668 -0.08727343 -0.14255638 0.073954254 0.029716585
0.06163731 0.04948069 0.049333747 0.090550415 0.027770186 0.13184613 0.08864516 -0.0069982293
0.013032238 0.13914348 0.032525737 -0.125687 -0.013131219 0.050315775 -0.089436606 -0.07447145
-0.121609256 0.03048683 -0.10725639 -0.03619409 0.021035176 0.0036002668 -0.010637438 -0.062971495
-0.026682958 -0.037652895 -0.009008891 -0.11546361 0.05532653 0.008260619 0.1548887 0.051527116
00000000: d5e6 6b3c dd90 2abd 56dc a63d 7384 5c3e
00000010: f6c0 aebd 673f d43d 700f 233e ee32 b83d
00000020: bfe3 8abc d9f7 d63c b6e8 833d 436b 373e
00000030: bccd 8e3d fc6e 93bd 0922 243d 7c9b 02be
00000040: 8d2e 9f3d bb6c 913d 3433 0dbd 85b2 293d
00000050: 2e79 b63d f012 88bd 55da 23bd a9c2 ec3d
00000060: 7722 fc3d 6f0b a3bb 5c3e f33d 7ad4 b1bb
00000070: 3ab1 6238 e477 fb3c 6bce e2bd 1971 c6bd
00000080: 7637 95bc b4d8 f73c 15d4 d93d 4cd1 d63c
00000090: 3ba1 c53d e18d 2b3c 4085 793d 548b 70bd
000000a0: bae2 7a3c c8c3 ac3d a7ec abbd 7806 b53d
000000b0: ed27 0f3c 97e4 153d 5425 29bd 3360 493d
000000c0: 3965 e5bd a73e 343d d183 f73d 5b14 e23c
000000d0: 1fa6 0cbd 6742 ed3c ba12 033c 9620 84bb
000000e0: eadc 923d 1058 363d 8ee7 a43d c112 3d3d
000000f0: 2c7a b1bd e28a 10be daa5 913c db07 10bd
00000100: 0a99 673d 4f2e 0fbd 40f1 223e fd50 f0bb
00000110: e16d cdbc 3ce0 3c3d 656a c03d 6f00 9e3c
00000120: 756d d13c 3b12 8c3d bc1f 0f3e 763d ca3d
00000130: 7b16 05bd ae31 45bd 1b80 f7bb 5fbb 393d
00000140: 5568 afbd 22d3 9e3c d9f5 babd 1826 71bd
00000150: c51a 323d 3602 7fbd bdd6 a03d f556 50bc
00000160: 0f94 c4bd 07e5 893d dd5f 5ebc dd87 173c
00000170: 3846 cbbd 3544 99bd 92a7 ad3b 0c17 84bd
00000180: 83ff 213d 0bb9 80bd cacb c1bd e7ca b63d
00000190: e944 22bc 94d8 f23d f96e a23c d94a c1bd
000001a0: 77a1 933b 80a3 4b3e 2ca0 063d d1bc cebd
000001b0: 66c8 26bd 5b5d 323d 563b 7f3d 6b09 08be
000001c0: a48f 77bd 4260 983b cbba 213d 9f08 3b3b
000001d0: 7bb9 02bd 5d32 efba f0c1 633c d6be f5bd
000001e0: b2a9 d53a 9298 bd3d 49c9 803d 7311 c13c
000001f0: 514b d13c 3c35 533d d365 013e 1312 c53d
00000200: 8116 81bd 212a 2e3b ab9a 52bd 9f19 423e
00000210: 538d 8dbd 8ddf 043d 6a80 7b3d f6fe cc3d
00000220: 99da c73d 7658 ab3b f1a2 50bb 4359 e53d
00000230: 4baa 613d 6bfa 4ebd 6d12 91bd a4d6 48bd
00000240: 01f3 c73d b111 c83d a4cf 8a3d 25a4 8ebd
00000250: b73c 443d cd59 9c3c 6f16 bc3c d12a 14bb
00000260: e208 893d 0a7e 063d 15cc dcbb c5be 2a3d
00000270: 4c1b 573d 434d a5bd c825 b1bc 97b1 e0bd
00000280: 5a71 b33c e582 05bd 3c04 2a3d 42f1 4cbc
00000290: 4a8c d33d 25ba c4bd 0963 ff3b 990b 02be
000002a0: 2b05 e83d 3c0f 293d afbb ddbc e3df e13d
000002b0: 1175 a3bc e732 ea3d 48e3 523c 5a2b 713d
000002c0: b5bc 33bd 85a1 3bbd de6b 0a3e cceb 87bd
000002d0: ccb0 15bd 62bc 9a3d 59c9 513b e946 82bd
000002e0: f740 3d3d 9725 c93d a197 8c3c 67bd cf3c
000002f0: 6bac bd3b 98a2 9fbd 0e16 dd3b d032 ea3c
00000300: 8994 833d 6e5b c53d 0c03 8f3b d5fa 23bc
00000310: 53f3 bf3d 9117 c63d e66c 233d abd0 573d
00000320: 690e b33d 933d 223d 12c4 6fbc 52cc e73c
00000330: b830 3cbd 434f 58bd 3773 c83c e4df b2bc
00000340: c6b6 d7bd 18f0 ac3c 87c0 9dbd dd82 34be
00000350: 0337 e43d 459d 5f3d a662 aa3d 2de9 553d
00000360: 5301 0dbd 86bc 2cbd 4ab1 8bbb d7d2 893d
00000370: 69bc b2bd 4dfa 11be 5475 973d 3270 f33c
00000380: 6777 7c3d 44ac 4a3d 2f12 4a3d 7f72 b93d
00000390: 4d7e e33c ac02 073e 988b b53d 6751 e5bb
000003a0: 2b85 553c a17b 0e3e b539 053d 18b4 00be
000003b0: 5324 57bc ea17 4e3d 8a2a b7bd 7d84 98bd
000003c0: 460e f9bd 84bf f93c 3da9 dbbd 4140 14bd
000003d0: f651 ac3c 74f2 6b3b a648 2ebc 33f7 80bd
000003e0: 3896 dabc ec39 1abd 079a 13bc 2f78 ecbd
000003f0: 129e 623d 8c57 073c 259b 1e3e 190e 533d

fc3.bias f4 [128]
0.08737528 0.050400224 0.05585456 -0.027770381 0.004907596 0.06344981 0.014610089 0.08054707
-0.041918825 -0.016103541 -0.04837907 0.11546547 -0.0016085004 -0.02700836 -0.0031030807 0.06846676
0.026322495 -0.032159064 -0.05884609 -0.052038267 -0.021997197 -0.010681878 -0.09132818 0.01170457
0.0015384065 0.029484084 0.047191434 -0.021698205 -0.02651452 0.08089133 -0.03965896 0.096500166
-0.03869101 0.05010753 -0.009202695 -0.008597229 0.028939243 0.10411575 0.01486567 0.07416561
0.025725123 0.10177183 0.056076523 -0.042052396 0.033350877 0.070429794 0.016704535 0.01843225
0.051776208 -0.0021471495 -0.029264536 0.09305041 -0.019013295 0.038042523 -0.05652221 0.10229999
-0.01720666 0.012452397 -0.06881835 -0.0011629211 -0.013767078 0.044474892 0.06722355 -0.0022003734
0.00605456 -0.03368625 0.02154167 0.014865421 -0.021963159 -0.055849023 0.089210495 0.08522587
-0.041140813 -0.031459503 0.024109907 0.008858763 -0.06895298 0.005616592 0.00406377 0.074146576
0.04038799 0.07426186 0.045294944 -0.009672008 0.040737472 -0.018420158 0.086550675 0.008069319
0.085052304 0.0015443644 0.04391153 -0.00061253295 -0.033368025 -0.072849914 -0.033451747 -0.034577325
0.07149666 -0.036784474 -0.04417996 -0.016467037 0.05158254 -0.026731974 -0.007840885 -0.065335594
-0.069920234 0.020740299 0.024457248 0.007242007 -0.0016603725 0.02109488 -0.04996812 0.043781765
-0.024939122 -0.047373075 -0.014054526 0.08067899 -0.028827805 -0.058504164 0.05459466 0.03697345
-0.052459825 0.07699578 -0.044377424 -0.059543982 0.0029131367 -0.042874664 0.03462807 -0.017954871
00000000: d0f1 b23d 7770 4e3d c0c7 643d b67e e3bc
00000010: e6cf a03b f9f1 813d 285f 6f3c ddf5 a43d
00000020: 13b3 2bbd 93eb 83bc 2229 46bd 2979 ec3d
00000030: 51d4 d2ba a340 ddbc 0e5d 4bbb 4d38 8c3d
00000040: 46a2 d73c 39b9 03bd 9908 71bd 1426 55bd
00000050: 7733 b4bc 0b03 2fbc 450a bbbd 86c4 3f3c
00000060: 5ba4 c93a 9b88 f13c ce4b 413d 6fc0 b1bc
00000070: fb34 d9bc 5baa a53d 6f71 22bd e1a1 c53d
00000080: 777a 1ebd 8e3d 4d3d e7c6 16bc 64db 0cbc
00000090: fe11 ed3c a33a d53d 248f 733c 24e4 973d
000000a0: 7ebd d23c c06d d03d 7fb0 653d 223f 2cbd
000000b0: ee9a 083d 7f3d 903d f3d7 883c 3bff 963c
000000c0: 4a13 543d 31b7 0cbb 2ebc efbc 3791 be3d
000000d0: c5c1 9bbc 7ad2 1b3d d583 67bd a882 d13d
000000e0: fbf4 8cbc 2305 4c3c a3f0 8cbd 286d 98ba
000000f0: 4f8f 61bc 4e2b 363d 80ac 893d 2434 10bb
00000100: 5565 c63b 98fa 09bd 2878 b03c 188e 733c
00000110: 15ec b3bc f2c1 64bd feb3 b63d e78a ae3d
00000120: 4583 28bd aedb 00bd 2482 c53c 5824 113c
00000130: 3837 8dbd 630b b83b 6029 853b 29da 973d
00000140: e16d 253d 9a16 983d 3187 393d 5877 1ebc
00000150: 56dc 263d dfe5 96bc 7b41 b13d 2d35 043c
00000160: e72f ae3d 456c ca3a 94dc 333d 6492 20ba
00000170: e9ac 08bd 5632 95bd b304 09bd f4a0 0dbd
00000180: d76c 923d 51ab 16bd 0cf6 34bd e1e5 86bc
00000190: 3748 533d 03fd dabc 0e77 00bc abce 85bd
000001a0: 5732 8fbd 8fe7 a93c 915a c83c 5c4e ed3b
000001b0: dba0 d9ba 2bcf ac3c 5fab 4cbd 8254 333d
000001c0: 214d ccbc 450a 42bd f444 66bc 073b a53d
000001d0: 4a28 ecbc 10a2 6fbd a69e 5f3d 7971 173d
000001e0: 1de0 56bd f7af 9d3d 1ac5 35bd 64e4 73bd
000001f0: 53ea 3e3b 589d 2fbd 2ad6 0d3d 1816 93bc

fc4.weight f4 [2, 128]
-0.054662626 -0.03500662 -0.04854048 0.045593534 0.10758953 -0.084882766 0.01286808 0.20514695
-0.08836253 -0.093492955 -0.00073656853 -0.08750877 0.022522753 0.060319424 -0.07074219 0.0693962
-0.11266625 -0.023864342 0.09383959 0.05750422 0.061224315 0.012649651 0.065368965 0.11930192
-0.00061389327 0.013092021 -0.027554737 0.035542656 -0.07616612 -0.002860084 0.03674156 -0.07468005
0.08484105 0.034033548 0.023004929 -0.075848475 -0.025206653 -0.025194354 -0.011149882 -0.028178217
0.019683955 -0.043809265 -0.03335035 0.030762255 -0.015625762 0.049512766 -0.045196638 0.011485987
0.04937617 -0.07801786 -0.16235341 -0.040633395 -0.08093607 -2.4658619e-05 0.108841226 -0.1306791
0.0063084094 -0.11609977 0.04990704 0.04047424 -0.0374842 -0.017817745 0.037914827 0.046319008
0.034500867 0.057732288 0.021966647 0.024344409 -0.116513565 0.08370957 0.041125342 -0.03182595
-0.006894301 -0.007599643 0.050930195 -0.05862578 0.2601944 0.046092693 -0.094471164 0.053601097
-0.020607175 -0.012651491 0.068016134 -0.029560138 -0.034646 -0.038457684 -0.049160704 0.050028678
0.010619839 -0.07170914 0.09399478 -0.014774064 -0.0014298655 0.05337053 -0.074036956 0.024994295
0.060525537 0.008941565 0.057290442 0.09323649 0.04396184 0.03644201 -0.05518229 0.2283049
0.034840055 0.15473548 0.07792916 -0.018862804 -0.08549497 0.012321564 0.009077697 -0.0316541
0.060175188 0.03629678 0.04551474 -0.0709448 0.05864586 -0.07820662 -0.049128793 0.084251076
-0.079292126 0.008593042 -0.04436129 0.027630093 -0.057729382 0.032100108 -0.018789975 0.01473376
-0.043056462 -0.042816814 0.04006274 -0.04026808 -0.0065571875 0.2248975 -0.060721777 -0.024610208
-0.054926846 -0.0556532 0.10027766 -0.064924166 -0.06503091 -0.04552255 0.032040387 -0.050709166
0.16596262 0.07280496 0.011484048 -0.023310097 0.059163406 -0.057370927 0.05054182 0.009022486
-0.07225429 0.22549307 0.11281096 0.10069184 0.17130247 0.10201088 -0.05921796 -0.023803003
0.062124714 0.10178134 0.09876488 -0.009652625 0.10012588 -0.059797868 -0.11361252 0.099797994
0.09535907 -0.04929713 -0.029658245 -0.066970095 0.094663 -0.054372467 -0.06334014 0.11519571
0.07839551 -0.029745812 0.097261585 0.083832875 -0.04520461 -0.08052415 0.018446151 0.06542986
0.09075636 -0.10060716 -0.06372813 -0.02801123 0.016367473 0.07628807 0.08763391 -0.04466866
0.020091819 0.06946609 -0.04644854 -0.054531552 0.019353133 0.025472615 -0.05024251 -0.05322041
-0.06435794 0.1057056 -0.06629352 -0.043257307 -0.054520667 0.04108974 -0.0045241243 0.24327317
-0.07014021 0.09060092 0.10856025 -0.032783024 -0.055408854 0.08580241 -0.06039387 -0.051752135
-0.06800326 0.18764624 0.0647678 0.23289698 0.09622803 0.033295527 -0.04428572 -0.053000942
-0.011633682 0.10705641 0.08119134 0.02433261 -0.03353745 -0.07973327 -0.050694857 -0.08109199
0.011559819 -0.10991289 0.075883985 -0.07438775 -0.048204 0.14311661 0.10140954 0.21589905
-0.040377527 -0.048680965 -0.03728557 -0.05715554 -0.052412625 0.051956665 0.06406275 0.063052766
-0.019022767 -0.08137446 0.055129696 0.11087933 -0.02223309 0.08295486 0.09156327 0.0965374
00000000: ebe5 5fbd 1a63 0fbd 62d2 46bd 49c0 3a3d
00000010: e657 dc3d 04d7 adbd a4d4 523c 0b12 523e
00000020: 6af7 b4bd 3c79 bfbd 4716 41ba cc37 b3bd
00000030: a381 b83c 8011 773d 48e1 90bd 981f 8e3d
00000040: 90bd e6bd 277f c3bc f92e c03d 8c89 6b3d
00000050: 59c6 7a3d 7b40 4f3c 2ae0 853d 9154 f43d
00000060: aeed 20ba eb7f 563c 79ba e1bc 2d95 113d
00000070: fcfc 9bbd 3f70 3bbb 517e 163d dbf1 98bd
00000080: 25c1 ad3d c366 0b3d d574 bc3c 7256 9bbd
00000090: 2f7e cebc 6464 cebc ffad 36bc 01d6 e6bc
000000a0: 3f40 a13c 5871 33bd 609a 08bd 2001 fc3c
000000b0: 9901 80bc e6cd 4a3d 1c20 39bd b92f 3c3c
000000c0: ab3e 4a3d d4c7 9fbd f93f 26be 346f 26bd
000000d0: cfc1 a5bd fbd9 ceb7 26e8 de3d bed0 05be
000000e0: c6b6 ce3b b7c5 edbd 536b 4c3d 51c8 253d
000000f0: 0889 19bd 85f6 91bc 944c 1b3d 00b9 3d3d
00000100: c850 0d3d b178 6c3d 66f3 b33c ed6d c73c
00000110: aa9e eebd ec6f ab3d 0c73 283d ed5b 02bd
00000120: 97e9 e1bb 6d06 f9bb 2e9c 503d 9621 70bd
00000130: 3338 853e b1cb 3c3d 197a c1bd d38c 5b3d
00000140: 61d0 a8bc 3348 4fbc 0b4c 8b3d 1a28 f2bc
00000150: f7e8 0dbd ce85 1dbd bc5c 49bd dfea 4c3d
00000160: d5fe 2d3c 3edc 92bd 5680 c03d ea0e 72bc
00000170: 536a bbba 0f9b 5a3d b0a0 97bd d6c0 cc3c
00000180: a0e9 773d a47f 123c 62a9 6a3d c6f2 be3d
00000190: 5511 343d 3844 153d d306 62bd c2c8 693e
000001a0: 72b4 0e3d fa72 1e3e 5399 9f3d 2b86 9abc
000001b0: fd17 afbd 63e0 493c 9fba 143c bba7 01bd
000001c0: 427a 763d efab 143d aa6d 3a3d 824b 91bd
000001d0: a436 703d cb2a a0bd 463b 49bd d48b ac3d
000001e0: e963 a2bd d5c9 0c3c 2fb4 35bd 8158 e23c
000001f0: a575 6cbd 677b 033d 6fed 99bc de65 713c
00000200: f95b 30bd af60 2fbd d418 243d 24f0 24bd
00000210: addd d6bb 884b 663e 66b7 78bd 599b c9bc
00000220: f9fa 60bd 9cf4 63bd 605e cd3d f6f6 84bd
00000230: ed2e 85bd da75 3abd c83c 033d 6ab4 4fbd
00000240: 1bf2 293e c41a 953d 9727 3c3c d1f4 bebc
00000250: 5455 723d c7fd 6abd f004 4f3d 0dd3 133c
00000260: 0ffa 93bd a8e7 663e 6f09 e73d 8637 ce3d
00000270: ea69 2f3e 15eb d03d 888e 72bd 84fe c2bc
00000280: 7c76 7e3d bc72 d03d 3e45 ca3d 0b26 1ebc
00000290: cc0e cd3d 9cee 74bd aead e8bd e462 cc3d
000002a0: 9e4b c33d caeb 49bd d9f5 f2bc 9e27 89bd
000002b0: adde c13d aab5 5ebd 7ab8 81bd baeb eb3d
000002c0: d38d a03d 7dad f3bc 1531 c73d 92b0 ab3d
000002d0: 7828 39bd d8e9 a4bd 621c 973c 1700 863d
000002e0: 78de b93d 200b cebd e583 82bd cf77 e5bc
000002f0: 1415 863c eb3c 9c3d 6879 b33d 7cf6 36bd
00000300: 9997 a43c 3d44 8e3d d340 3ebd 7a5c 5fbd
00000310: 768a 9e3c f2ab d03c 17cb 4dbd a5fd 59bd
00000320: 18ce 83bd 2d7c d83d e6c4 87bd 932e 31bd
00000330: 1051 5fbd b74d 283d 1b3f 94bb 9a1c 793e
00000340: aca5 8fbd fa8c b93d d654 de3d 7e47 06bd
00000350: 65f4 62bd 2db9 af3d 905f 77bd 0cfa 53bd
00000360: 4b45 8bbd 5626 403e fba4 843d 8c7c 6e3e
00000370: 3413 c53d e460 083d f164 35bd 8417 59bd
00000380: 339b 3ebc 6440 db3d a547 a63d 2f55 c73c
00000390: 915e 09bd 324b a3bd 69a5 4fbd 8f13 a6bd
000003a0: 6565 3d3c 021a e1bd 1069 9b3d 9b58 98bd
000003b0: 8f71 45bd 298d 123e ceaf cf3d a414 5d3e
000003c0: e862 25bd b165 47bd c1b8 18bd ed1b 6abd
000003d0: 9fae 56bd 83d0 543d 5533 833d cf21 813d
000003e0: a2d5 9bbc a7a7 a6bd adcf 613d b414 e33d
000003f0: 2b22 b6bc 3de4 a93d 8685 bb3d 66b5 c53d

fc4.bias f4 [2]
-0.0056353477 -0.011535046
00000000: b9a8 b8bb 7dfd 3cbc
